CartPole-DQN/checkpoints/model_ep100.pth (torch, 38704 bytes, 6 tensors)

fc1.weight f4 [128, 4]
00000000: e4b5 e63f da0d b53e b41e 4a3e bdda 5d3e
00000010: 010e da3e 22d7 a6be c39e c13e c729 4ebe
00000020: e0f2 d93f a532 d43e 7c7c 05bf 3cca 863e
00000030: 3893 0ebd 5961 bc3c 70b0 cfbe f531 9bbd
00000040: bca9 8c3f 2a62 393d ef87 35bf 0d5c d5be
00000050: 61da 8bbe 81fa 9c3a 72a8 913e 4de5 2b3e
00000060: 7102 75bd acbd c6be 300e 3ebf 6c83 493d
00000070: 044e e8be 2599 2ebd 3be0 58be 28df 5f3e
00000080: a260 9bbf 3755 f7be 17d0 8ebc f5c6 8dbe
00000090: f3bc ccbe c875 213e 6801 023e 3f5e 0a3d
000000a0: a765 57bd f519 fb3d 2025 003f 1196 e1be
000000b0: 87a6 df3f 2694 3d3f 2e0f 013e ac10 e73e
000000c0: cc8b 3f3f 4179 7cbe aee0 33bf b0e0 4dbe
000000d0: a141 6bbd 2255 5a3d 4194 b8be 53e0 8b3e
000000e0: 5940 03bf c599 c83e 16db 213f 676e d2bd
000000f0: 7779 8cbe 1140 debd 9edb 913e 160c 7dbe
00000100: 432e bd3e 8c4c e03d beb0 713e a2bd 01be
00000110: e0d8 00be 4036 82bd 74fb 4b3e 875e 0f3d
00000120: be45 f0bf 6425 e1be 02f8 903e 59bd 5abe
00000130: 8f8b 0c3f 0e92 a93c ab50 9cbd 7cf3 383d
00000140: 17e3 b0be 784c 223d 7284 8d3e d1f1 21be
00000150: 1ba0 4dbf 95b0 c73e b2b9 4e3f eb1b 3abe
00000160: 18e1 68be d052 fa3c 53a2 623f 5833 103f
00000170: 3143 ebbe 7c76 2f3e 4ced 64be 39ea 203e
00000180: c929 d33f 86af e63d 5542 45bf 7705 273e
00000190: fcb6 09bf 1a8e 50be d55e 17bf d908 243d
000001a0: 427b bc3e f0f6 e1be 1abf 11be 1951 c93c
000001b0: d9f6 523e 26ce a43e be7b 35bf e9d2 14bf
000001c0: a884 b5be a48c eebd 3d8f 1abe 72d2 8bbe
000001d0: 7c34 043e 4416 af3e 7caf 353d 63ac 46be
000001e0: 1f7d 03bf 4d04 8e3e 61e9 703e 1e85 93be
000001f0: 9c1b 553f d7fe b5bc dee4 07bf d3ae 67be
00000200: 2be7 553e 0f8f eabd 3a40 aebe d8cb 753e
00000210: 26d1 d5be fb07 863b 2148 17bf ddfc 953e
00000220: e10a 913a 60ea 1c3e 2478 39be ff3c abbe
00000230: bb04 ee3d 03b9 8dbe cb1c b73e b73d e23d
00000240: 6ecb 783f 2366 6dbe 1dbd 89bf 4a2e e7be
00000250: 08e9 03bf 1022 173f 6e37 893f a59e 1b3f
00000260: 2f54 c5bd 2df8 343e ceee 8abe 34b6 52be
00000270: 0748 64be 3c0d 32be ea36 003f 1775 54be
00000280: 6da8 13bf 1f34 5dbe 34c4 03bf b667 543d
00000290: d6a0 e1bd e5fc a03e 17c9 13be 3bf8 e93d
000002a0: 91d8 093c 2216 9bbe 58c5 1b3f 254e 98be
000002b0: e9f3 bfbd ea5a 7dbe 3b6e f03d ca27 8cbe
000002c0: 5546 bbbe aebb dd3d abf2 aa3e 3f4b c53d
000002d0: 96a3 a1be eab6 e03e 68f7 dc3d 3812 003e
000002e0: de2c 813e 1024 9abe 446d 71be 80d3 3bbd
000002f0: 2838 bbbe 8adc e33e 2166 6d3f 45a8 f93e
00000300: 66d3 d2bd 9c9a c7ba 0256 47be f08a 5cbe
00000310: 1d4d 3dbe 88fc bbbd 76d0 3e3e 0ad3 58be
00000320: b8be 8ebf dcf8 8d3e 845f c93f 2ba5 9e3e
00000330: 958d 8e3e 81ce f63e ea14 8f3f b13a e43e
00000340: bce8 cdbe 5d0c e0bd d355 623e cfbd bbbd
00000350: 1213 cabd cc65 f9bd 37ed 98be 9f6c 623e
00000360: 2dcf b73d 4fb4 18be b527 9bbe 32c5 623d
00000370: a0c1 2d3e ac79 073f 96e0 d73f 842e e63e
00000380: 064c c53c 9df1 483e 0383 33bf 508f 8a3e
00000390: d8d3 843f 24e0 b23d 36ee 94bf b2c2 1ebd
000003a0: a496 6a3f 5ef4 b13d 3fdc a9bf 46cc e2be
000003b0: b46c 8bbe 4089 fa3d 3257 02bf eaf1 9fbd
000003c0: 7885 363f 548d 773e c0ee bfbf c60c b0be
000003d0: 14f1 09bf f1ca 80be 35d0 acbe 6bbc 67bd
000003e0: 9266 d0bd bee1 abbe 3167 af3e 511a 90be
000003f0: 6e1e 2cbf fe7d d13d 9eac dd3d feb4 773d
1.8024259 0.3536213 0.19738275 0.21665473 0.4258881 -0.32586008 0.37816438 -0.20133124
1.7027245 0.4144489 -0.52143073 0.26326168 -0.034808367 0.022995638 -0.405643 -0.07577888
1.0989299 0.045259632 -0.70910543 -0.41671792 -0.27315047 0.0011976511 0.28448826 0.1678669
-0.05981678 -0.38816583 -0.742404 0.0491976 -0.4537202 -0.04262652 -0.21179287 0.21862471
-1.2138865 -0.483072 -0.01743321 -0.27690855 -0.39987907 0.15767586 0.12695849 0.033781286
-0.052587178 0.1226081 0.5005665 -0.44059804 1.7472695 0.7405418 0.12603447 0.45129907
0.7482269 -0.2465563 -0.7026471 -0.20105243 -0.057435635 0.053303845 -0.3605061 0.27319583
-0.5127006 0.39179817 0.63224924 -0.10274964 -0.2743642 -0.108520634 0.28487867 -0.24711642
0.36949357 0.109521 0.23602578 -0.12669995 -0.12582731 -0.063580036 0.1992014 0.035002258
-1.8771284 -0.4397384 0.28314215 -0.21361293 0.5490045 0.020699527 -0.07632574 0.04515408
-0.34548256 0.039623708 0.2764011 -0.15814902 -0.80322427 0.3900191 0.807521 -0.18174712
-0.22742116 0.030557066 0.8852894 0.56328344 -0.459497 0.17135042 -0.22356147 0.15714349
1.6497127 0.11263947 -0.7705434 0.16310678 -0.53794837 -0.20366707 -0.5912908 0.0400475
0.36812788 -0.4413371 -0.14233056 0.024574803 0.20601977 0.3218853 -0.7089194 -0.58134323
-0.3545277 -0.11647919 -0.15093704 -0.27308995 0.12910646 0.34196675 0.044356808 -0.19401698
-0.51362795 0.27737656 0.23526527 -0.28812498 0.83245254 -0.022216244 -0.530836 -0.22625284
0.20888965 -0.114530675 -0.34033376 0.24003541 -0.4176113 0.004090307 -0.59094435 0.29294482
0.0011065864 0.15323782 -0.18112236 -0.33444974 0.11621996 -0.27680215 0.35764155 0.110469274
0.9718541 -0.23183493 -1.0760838 -0.45152503 -0.5152745 0.5903635 1.0720041 0.6078895
-0.09635197 0.17672797 -0.2713532 -0.20577317 -0.22293101 -0.17387861 0.5008379 -0.20747791
-0.5767887 -0.21601914 -0.5147126 0.05185672 -0.11017005 0.31442943 -0.14432178 0.11424299
0.00841345 -0.30290323 0.60848 -0.2974712 -0.09372694 -0.24741712 0.11739775 -0.27374107
-0.36577097 0.10826813 0.33388266 0.09633493 -0.3157012 0.43889552 0.107893765 0.1250695
0.25229543 -0.30105639 -0.23576838 -0.045856 -0.3656628 0.44504195 0.9273396 0.48761192
-0.10294227 -0.0015228572 -0.19466403 -0.21537375 -0.18486448 -0.09179026 0.18634209 -0.21174255
-1.1151953 0.27728927 1.5732274 0.30985388 0.27842394 0.48204425 1.1178257 0.44576028
-0.40216625 -0.10939858 0.22103052 -0.091670625 -0.098669186 -0.12177619 -0.2986848 0.22111748
0.089750625 -0.14912532 -0.30303732 0.05536384 0.16968393 0.5292003 1.6865413 0.44957364
0.024084102 0.19623418 -0.70121783 0.27062464 1.037715 0.08734158 -1.1635196 -0.038759895
0.9163611 0.086891875 -1.3270339 -0.44296473 -0.2723137 0.122332096 -0.509143 -0.07809813
0.7129741 0.24175006 -1.4994736 -0.34384745 -0.5388348 -0.25154832 -0.337526 -0.056576174
-0.10175814 -0.33570665 0.34258416 -0.28145078 -0.6723393 0.10229109 0.1082394 0.060475342

fc1.bias f4 [128]
00000000: c016 dbbd 4c38 0dbe 2e64 83be e3bb a6be
00000010: 02a7 1ebf 058c 373f 926a 2c3f 39d6 423f
00000020: 123d 21be d0e8 6c3e b81e babb e99f b6bd
00000030: bba5 703e 3900 1d3f 91cc 133d 2896 343f
00000040: d677 00bf 1f92 363f 5f05 babd 3c8b ca3e
00000050: ec91 333f 764c ab3e 67d9 a9be 52c8 993e
00000060: 32dc dc3e 8734 1b3f ff0e 1b3e c5d7 94be
00000070: 0636 233f b738 c33e 19e3 fc3e f48b dabe
00000080: 8324 393f 4bb0 233f 9a1d f33e e951 f2be
00000090: 5544 d7be c6f1 7a3e 2fbd aa3e 01ea b53e
000000a0: 3813 1f3f 6214 2c3f ed8c ba3e 4785 e63e
000000b0: b6ac cd3e 3aa8 f8be 96fe b4be 81b6 6c3e
000000c0: baf9 433f 28e3 023f 0506 d0be 49be 9ebd
000000d0: 04b7 c03e d27f ac3e e8f8 af3e 99d5 64be
000000e0: e676 cb3e 35c7 a33c 8a75 29bf a4da 253f
000000f0: 3d4f 23bf 3351 233f 1bd2 f53e 8a02 a33e
00000100: 6592 973e 1600 253f 36da e6bc 0ea5 49bf
00000110: 57a9 3c3f d461 0dbf 8829 40bf 22e2 e5be
00000120: 7bd7 af3e bdb4 f1be c9f6 ab3e ef89 10bf
00000130: c6d9 103f 8e5d 403f b83a e3be 0bef c9be
00000140: 0f86 b5be 7942 8cbe b899 a3bc 58e8 203f
00000150: 429b 44bf e85c 5d3d 1968 a1be 8c52 363f
00000160: 3ceb 263e d59b b53e e774 f5be 94e4 403f
00000170: 8166 d43e c8f0 20bf 5122 a93e ffb8 893e
00000180: e6df bb3e b5af 0fbf 63ab 393f 3e22 143f
00000190: 5f08 e83e a830 a03e c9d1 bd3e bc90 0c3f
000001a0: 2005 413f da48 fcbc c3fe 20bd 2189 7abe
000001b0: 081b c0be 75e7 0ebf 7095 23bf 4932 813e
000001c0: ddd8 d9be 9f75 333f 942b c2be 56b7 5e3e
000001d0: a945 79bf dc52 99be b362 2cbe fc62 273f
000001e0: eba4 edbc c240 ad3e c754 cc3e 9bea e13e
000001f0: 8efd 0bbf b102 933e c453 f5be 204f 473f
-0.106976986 -0.13791007 -0.2566237 -0.3256522 -0.61973584 0.7169803 0.67350113 0.7610813
-0.15745953 0.23135686 -0.0056799315 -0.08917219 0.23500721 0.61328465 0.03608376 0.7054162
-0.50182855 0.71316713 -0.09083056 0.39559352 0.70144534 0.33456773 -0.33173677 0.30035645
0.43136746 0.60627025 0.1514244 -0.2907087 0.6375431 0.38129207 0.49392012 -0.426849
0.7232134 0.63940877 0.47483522 -0.47328117 -0.4204432 0.24506292 0.3334746 0.35530093
0.621387 0.672186 0.36435643 0.45023558 0.4017083 -0.48565847 -0.35350484 0.23116495
0.7655293 0.5112786 -0.40629593 -0.07751138 0.3763963 0.3369127 0.34369588 -0.22347106
0.3973915 0.01999245 -0.66194975 0.64786744 -0.63792783 0.63795775 0.4801186 0.31837875
0.29603878 0.64453256 -0.028180223 -0.7876748 0.7369589 -0.552274 -0.7506337 -0.44899088
0.34344086 -0.47208205 0.3358672 -0.5646047 0.56582296 0.75142753 -0.44380736 -0.39440188
-0.3545384 -0.27394465 -0.01997076 0.6285453 -0.76799405 0.05404368 -0.31524733 0.71219707
0.16300672 0.35470453 -0.47940752 0.7534878 0.41484454 -0.62867403 0.33033994 0.26898953
0.36694258 -0.5612748 0.7252714 0.5786475 0.45318887 0.31287122 0.37074116 0.5490835
0.75398445 -0.030796457 -0.03930546 -0.24466373 -0.37520623 -0.55821925 -0.638999 0.25233677
-0.42548266 0.7010135 -0.37923872 0.21749625 -0.9737192 -0.2994603 -0.16834526 0.65385413
-0.029009303 0.3383847 0.3990843 0.44124302 -0.5468377 0.2871299 -0.4791547 0.7785511

fc2.weight f4 [64, 128]
00000000: 1e01 eebe f10d 87bd fd37 83bf ab0c 4cbd
00000010: f96c e6be c3d5 623e f612 a23e dfbc fb3d
00000020: 00f7 c0be be4e d53d 5482 583d 9ba7 39bf
00000030: 2394 6b3e 7a1d 4a3e a5a4 b6bc 74bc 373e
00000040: d1a2 52bd e065 903e ca53 33bf c4e4 e03d
00000050: c997 933e c6df 1e3e e268 c2be 2f68 163e
00000060: 34a0 7dbe 801f 5c3e bfce 1bbd 7271 b5bd
00000070: e464 893e e2a6 733c 6898 9f3d 29cb 58be
00000080: 125c 173e 28e9 d53d 2e8b 843d c168 64be
00000090: d372 8fbe 418a 53bf 988d f93c 8f69 673e
000000a0: f23f a93e 0996 5f3e f950 8a3e b914 153e
000000b0: f6fa 583e 3890 f5bc f00e f53b a669 a9be
000000c0: 7ddf 5e3e 5c52 483e 51a3 213e f6f7 e3be
000000d0: a377 573e 3c93 973c f133 f63d 4383 d0bf
000000e0: 986c 2b3e 016c 9f3d dfcd dfbe 3309 fc3d
000000f0: b414 8cbe d7de 493e 3605 8f3e e1b8 1e3e
00000100: 8999 6c3e dc02 ab3e 4701 28bf 22fd f7be
00000110: 2b07 2e3e 37b8 6fbe 4cc8 62bf 1469 ce3c
00000120: c996 573e 2c78 c2bc 8625 683e 8751 f5be
00000130: c559 793e 4df2 273e 943b b0be 00d5 64bf
00000140: 197b d7be 2edc c9bf b272 21bd 9c1d 1e3e
00000150: 3389 34bf c60b 1bbf 36f6 83be 718b 193e
00000160: db30 8cba f645 f53b 0923 7dbe f451 963e
00000170: c74b 2b3e 4770 d6be 6007 3e3e bbe4 963e
00000180: f4c3 553e c566 16bf 3824 0f3e b5f7 043e
00000190: 470c 5c3e 7bc3 5f3d 4f42 29bb 6075 563e
000001a0: 88b1 9a3e 66ba 40bf 502a 90bf b626 04bf
000001b0: ef27 ebbf ac6c 24bf 4871 63be 4a16 0c3e
000001c0: 3eba 14be ab1a ed3d e890 a2be c164 e63d
000001d0: 7fab 44bf 1fe0 d7bf 1487 73bf b3ef f73d
000001e0: 4569 84be 4054 1f3e 630c 363e da84 4d3d
000001f0: b988 9cbf 7a16 ca3d 80f2 84ba 82cc 143e
00000200: 7165 8fbe 03d1 093d 7ea8 14bf 6227 5f3d
00000210: d1a0 0fbf c78d 9d3e 36fb 373e 7e67 833e
00000220: 29ea cb3d a803 093e 5213 34bc 98ba 05bf
00000230: 98da 823e 7410 513e 63d6 8dbd aaa0 023e
00000240: 940d 84bd 179c 6e3e a93e 39bf fdcb 883e
00000250: 7047 1f3e 357d 053e c53c 063f 5cec 8b3d
00000260: a2bf 30bf 177f af3d 4226 023e e130 eabe
00000270: dc6a a33d 3254 5f3e 444d ed3d 3b90 a6bd
00000280: 3b67 5e3e 6702 823e 5d66 0d3e 5e24 aabd
00000290: eeca 5cbf c993 843e d352 4e3d c4f2 923e
000002a0: fa9a f83d 3bb3 283e fbc6 933e efe2 eb3c
000002b0: 8ab2 7f3e 8037 1bbb 408f cfbc d84d 173e
000002c0: 1de1 683e a852 bf3d b2ed 043f 0220 eb3e
000002d0: cdfd 103e 75f5 3c3e f7de 5f3e 2e20 853e
000002e0: 6f00 0e3e 9f3f 2b3e 2b3a 39bf 1cd3 603d
000002f0: ce1c 16bf 81bb 833e 6807 133e 9732 7c3e
00000300: 539c 193e 99e3 443e 7249 c43d 174d 5ebf
00000310: 13e7 503e f945 c9be b595 e5be ecc9 8c3c
00000320: c353 8e3e aad0 e43e a650 223e 82d0 e4be
00000330: cd35 463e 32aa 383e 650e e03e e2a7 0abf
00000340: 6575 92bd 7a38 32bf c23e 56bc 11fa 883e
00000350: 2e96 dcbe 56d4 523e a8a0 023f 82bb 983e
00000360: de4e 1c3e 450c 753e d30c 5abd abdd 893e
00000370: 6cf3 403e c55e f0bd 1775 db3d 6994 7b3e
00000380: e168 613e 72e7 01bf d421 0e3e 10ce 073e
00000390: 4f68 053e f49e 643e 13ba 093e 5c7b 0d3e
000003a0: 9345 493e f85b 60be 3d2a d4bf bf8b acbe
000003b0: 0c3f cdbf 3049 d4be 1d35 783e 3489 403d
000003c0: d4ae 7b3e 1355 543e cf5d 04bd bf5a 933e
000003d0: fb5b 8fbf fb89 81bf 212b b8bf 50b3 3a3e
000003e0: ac8c 103e 2653 323e aec8 733e e53c 483e
000003f0: 2ec0 06c0 faed 813e cf69 46bd 2659 1d3e
-0.46485227 -0.06594456 -1.0251461 -0.04981677 -0.45005015 0.22151856 0.3165509 0.12291884
-0.37688446 0.104154095 0.052858666 -0.7252137 0.23005728 0.19737807 -0.022295306 0.17942983
-0.051424805 0.28202724 -0.70049727 0.109811336 0.2882674 0.1551505 -0.37970644 0.1468818
-0.24768144 0.21496391 -0.038038965 -0.088595286 0.26834786 0.014871331 0.07792741 -0.2117125
0.14781216 0.10444862 0.06471859 -0.22305585 -0.2801729 -0.82632834 0.030463025 0.22598861
0.330566 0.21834578 0.27014902 0.14558686 0.21189484 -0.029975995 0.0074785873 -0.33088416
0.21764942 0.19562668 0.15784957 -0.44525117 0.21041732 0.018502824 0.12021626 -1.6290058
0.16740644 0.07784272 -0.43711755 0.12306442 -0.27359545 0.19713913 0.27933663 0.15500213
0.23105444 0.3340062 -0.6562695 -0.48435313 0.16994922 -0.23410116 -0.8858688 0.02519659
0.21053614 -0.023738943 0.22670564 -0.47913763 0.2435065 0.16401024 -0.34420455 -0.8938751
-0.42086104 -1.5770319 -0.039416023 0.15440983 -0.7052185 -0.6056484 -0.25773782 0.14994599
-0.0010695712 0.0074851466 -0.24720396 0.293594 0.16728126 -0.41882536 0.18557501 0.29471382
0.20875531 -0.58750564 0.1397866 0.12985118 0.21489058 0.054629784 -0.0025826877 0.20943213
0.3021357 -0.7528442 -1.1262913 -0.5162157 -1.8371562 -0.6422832 -0.22211182 0.13680378
-0.14524171 0.11577352 -0.3175118 0.11249686 -0.7682418 -1.6865271 -0.9512799 0.12106266
-0.25861564 0.15559483 0.17778163 0.050175525 -1.2229224 0.09867568 -0.0010143071 0.14531139
-0.2800708 0.033646595 -0.580696 0.054480918 -0.5610476 0.3077223 0.17966923 0.25664896
0.09956772 0.13380301 -0.010990934 -0.52237844 0.255574 0.20416433 -0.06925657 0.12756601
-0.06447902 0.23301731 -0.72361237 0.2671813 0.15554595 0.13036044 0.52436477 0.06832191
-0.6904241 0.08569162 0.12709907 -0.45740417 0.07979366 0.21809462 0.11587003 -0.081329785
0.21719067 0.25392458 0.1380858 -0.08307718 -0.86247146 0.25894 0.050371956 0.2870084
0.121389344 0.16474621 0.28862748 0.028794734 0.24970451 -0.0023684204 -0.025336862 0.14775789
0.22742124 0.09341937 0.51925194 0.45922858 0.14159317 0.1845301 0.21862398 0.26001114
0.13867353 0.16723488 -0.7235438 0.05488883 -0.586377 0.25728992 0.14358294 0.24628673
0.15001039 0.19227447 0.09584321 -0.8683638 0.20400648 -0.39311197 -0.4484078 0.017186128
0.2779828 0.44690448 0.15851077 -0.4469033 0.19356461 0.18033674 0.43760982 -0.5416242
-0.071512975 -0.69617426 -0.013076486 0.26753286 -0.43083328 0.20588812 0.5102639 0.29830557
0.1526446 0.23930462 -0.053234886 0.26926932 0.18842858 -0.11736826 0.107156925 0.24568333
0.22012664 -0.5074378 0.13880092 0.132622 0.13028072 0.22326261 0.13449888 0.13816589
0.19655447 -0.21910083 -1.657539 -0.33700368 -1.6034865 -0.41462088 0.24239011 0.047005847
0.2457841 0.20735578 -0.032316025 0.2878017 -1.1199945 -1.0120233 -1.4388162 0.18232465
0.14116162 0.17414531 0.23807022 0.1955448 -2.1054797 0.25376874 -0.04844075 0.15366039

fc2.bias f4 [64]
00000000: 100a 853e 40ce 683e f3b7 9bbd 8939 6c3e
00000010: 843b 84bd 761f 01bd 4788 763e cb07 c33e
00000020: 3c3b 603e 4e56 803e 29fa 4abd f27e 863e
00000030: efde 02be 35dd 44bc 21e4 4abe b79e c3bd
00000040: 8277 923e f412 ddbd 41c1 8d3e 7beb c6bc
00000050: 415f 2d3e af9c b73e 6fa7 f4bc 5704 aabd
00000060: 3032 a5bd b06d 573d 88d0 813c 3084 82bd
00000070: 08cf 913e 348f abbd d92e 103e 5971 9bbd
00000080: 2720 603e ffd1 a3bd 59df c8bd 5ed7 a13e
00000090: 0f14 49bd 516b ae3e 4c87 d23d 85e2 553e
000000a0: 1a8d 673d 1960 8dbc 60f3 663e a1b7 07bc
000000b0: fac7 7d3e 9011 debd 95bb f3bc 5107 2a3e
000000c0: b7e1 333b cd1f c73e 1768 8a3e ccaf a63e
000000d0: 3ddf 863e 03c3 493d f282 6cbd 672e 4b3e
000000e0: 1be3 273e 7914 a13e cbd6 be3c 94c5 b13c
000000f0: 666e 943e c461 973e b8e6 323e 1404 4a3e
0.2598424 0.22734928 -0.07603445 0.23068823 -0.06456664 -0.031524144 0.24075423 0.38091883
0.21897596 0.25065845 -0.049554978 0.26268727 -0.12780355 -0.0120156305 -0.19813587 -0.09551757
0.28606802 -0.10794631 0.27686504 -0.024282208 0.16930868 0.35861728 -0.029864995 -0.08301609
-0.08066213 0.05259484 0.015846506 -0.06372869 0.28478265 -0.08376923 0.14080371 -0.07589979
0.21887265 -0.07999038 -0.09808225 0.31609625 -0.049091395 0.3406625 0.10279712 0.20887192
0.05653105 -0.017257737 0.22553778 -0.008283527 0.24783316 -0.108431935 -0.029752532 0.16604353
0.002744777 0.3889145 0.2703254 0.32555997 0.26342192 0.049258243 -0.057742067 0.1984192
0.16395228 0.31460932 0.02329578 0.021700658 0.28990477 0.29566777 0.17470825 0.19728118

fc3.weight f4 [2, 64]
00000000: 57f2 973e 34cf 733d 7822 cabd 0a13 8a3e
00000010: b077 a0bd 7a22 923d e75b cc3e a240 c83e
00000020: 89bc 9e3e 3b5b 983e 4300 8f3c d559 9e3e
00000030: 1d77 9f3e 1506 a9bd 1347 3cbf ce4b 623c
00000040: 1e34 a43e 7632 83bd 13ef c83e 9135 803a
00000050: bcca b23e 6ae2 d23e 41fe 80bc 210b c1bd
00000060: dead a93d 51c2 43bd 8093 32bd 7964 653b
00000070: 6346 ab3e 3cfe 10bd a1b6 5e3e d8ca a3bd
00000080: 7745 cb3e 8757 93bd 275e 09bc 07ba d23e
00000090: 4efa a1bc eaee da3e 0fe9 a73d 1678 ce3e
000000a0: 3bbe c0bd 5b5a a6bc 129a 933e cd30 9fbd
000000b0: 40bf bc3e cba2 3cbd 10cb fb3d aee6 d93e
000000c0: f543 a2bd 939d c73e 471a b93e 14b4 433e
000000d0: 522e 8b3e a612 cc3c 2448 1e3d c56d 6c3e
000000e0: a4d8 823e 0838 c83e 6024 0ebd 3472 cf3d
000000f0: 0b1e ce3e bf07 513e a616 8c3e 23cb f03d
00000100: 6ed0 b13e 1452 e23e aed5 ad3d 6595 ca3e
00000110: f2f0 e2bc 9aca fdbd f625 933e 19f3 963e
00000120: c42a 953e 4d0b 873e a8b0 b1bd 641f ae3e
00000130: d2c6 e6be b881 2f3d 8d2f 443d c37f 4cbd
00000140: a1b0 c33e 52b8 bebd 11ed b63e 20c9 93bc
00000150: d64d b23e 20f2 de3e 3079 79bd bf5b d63c
00000160: f26a 77bd b754 71bd f1e0 92bd b05b c3bd
00000170: 3a05 ab3e 1968 9e3d 925d b63e e57a 4dbd
00000180: 4d96 863e 281f 3cbd 24d0 afbd 2275 8f3e
00000190: ee11 333c de2c 623e 6ddd cf3e 6a71 663e
000001a0: c0fd 093d 473b 043d 2ed6 9f3e 246b 3f3d
000001b0: 2340 7b3e 401b 623a 1e23 0abc b134 8b3e
000001c0: 64d3 ef3d 910b 9b3e 768f a73e 24c6 c33e
000001d0: d751 a93e ffcf 8dbd b878 b63d 31f2 b03e
000001e0: dc5f 953e ae11 313e 8997 0d3d 0c4c ebbd
000001f0: 134e b43e 84f0 bd3e 66e1 af3e c5ee db3e
0.29677078 0.059523776 -0.09869856 0.2696765 -0.078353286 0.07135482 0.39913866 0.3911181
0.31003216 0.29757103 0.01745618 0.3092791 0.31145564 -0.08253113 -0.7354595 0.013812019
0.32071012 -0.06406109 0.392449 0.0009781589 0.349203 0.41188365 -0.015746238 -0.09425951
0.08285116 -0.047792736 -0.0435977 0.0035002513 0.33452138 -0.035398707 0.21749355 -0.07997674
0.39701435 -0.07194429 -0.008384264 0.41157553 -0.019772675 0.42760402 0.08198749 0.40325993
-0.094112836 -0.020306757 0.28828484 -0.0777298 0.36864662 -0.04605369 0.122945905 0.42558807
-0.07923118 0.38987407 0.3615286 0.19111663 0.27183777 0.024911236 0.038643017 0.23088749
0.2555591 0.39105248 -0.03470266 0.101292044 0.40257296 0.20413111 0.2736103 0.11757495
0.34729332 0.44203246 0.08488022 0.39567104 -0.027702782 -0.12392159 0.287399 0.29482344
0.2913419 0.2637581 -0.08676273 0.34008324 -0.45073563 0.04284832 0.04789691 -0.04992653
0.38220695 -0.093125 0.35727742 -0.01804024 0.3482501 0.43544102 -0.06090659 0.026166795
-0.060404725 -0.05891868 -0.071718104 -0.095389724 0.33402425 0.07734699 0.35618263 -0.05016603
0.26286545 -0.04592815 -0.085846215 0.28019053 0.010929568 0.22087428 0.40598622 0.22504202
0.03368926 0.032283094 0.31218094 0.046733037 0.24536185 0.00086252764 -0.008431224 0.27188638
0.117102414 0.30282262 0.3272664 0.38237107 0.3307025 -0.06924438 0.08909744 0.34559777
0.29174697 0.172919 0.034568343 -0.11489114 0.35215816 0.3709756 0.34351653 0.42955604

fc3.bias f4 [2]
00000000: f7e3 a43e 360c 393e
0.32205173 0.18071064
