CartPole-DQN/checkpoints/model_ep150.pth (torch, 38704 bytes, 6 tensors)

fc1.weight f4 [128, 4]
1.7369908 0.29597315 2.4766154 0.2524475 0.34679174 -0.24689366 0.40933144 -0.28046802
1.7413149 0.41948396 0.9606093 0.2711484 -0.03302814 0.024748543 -0.25433755 0.03915597
0.63773394 -0.21517088 -0.95837134 -0.2922498 -0.24624686 0.0016766896 0.3242597 0.14238703
-0.042651 -0.3634325 -0.7062917 -0.0032678724 -0.42967033 -0.047400642 -0.17675245 0.20347442
-1.1601351 -0.39730138 -0.6088136 -0.21941139 -0.35631767 0.16011222 0.18120007 0.04781494
-0.13030353 -0.088588454 -0.14577694 -0.23274212 1.7723016 0.69344854 1.4465953 0.45172608
0.6580724 -0.13091423 -0.5463119 -0.23943602 -0.030646376 0.055611264 -0.31961173 0.24383694
-0.21872616 0.55168307 1.9104732 0.4514176 -0.25061208 -0.117576 0.3250095 -0.24683625
0.261163 -9.1439695e-05 0.0795991 -0.029853389 -0.10267691 -0.06998934 0.23884565 0.027117115
-1.8848674 -0.40681627 -0.3452868 -0.19660327 0.6682711 0.1390929 -0.46178916 0.03436559
-0.32204857 0.029149702 0.30569583 -0.16574398 -0.7597111 0.315674 0.87343717 -0.029342221
-0.4089889 -0.01706978 0.5224164 0.096293405 -0.42613494 0.1699024 -0.18021512 0.15970975
0.57349885 0.1595981 0.07379914 0.0017953161 -0.51370615 -0.20930907 -0.54768413 0.042578343
0.30529776 -0.39275333 -0.41533956 -0.25253168 0.5030146 0.005744339 -2.974936 -0.4337187
-0.32368478 -0.1196917 -0.08393464 -0.24405806 0.13289185 0.22287014 -0.22330439 0.01886331
-0.47685084 0.22310273 0.25905633 -0.11508434 0.64425725 -0.11426165 -0.68030685 -0.18950856
0.23048595 -0.11527801 -0.3062835 0.20879766 -0.3931782 -5.8653066e-05 -0.55764 0.27150804
0.033207443 0.09918936 -0.17585763 -0.19439411 0.668726 -0.13450015 0.45624545 0.26080617
0.78177947 -0.3671058 -0.95029444 -0.35254723 -0.5369593 0.6593119 1.1607071 0.5635842
-0.056213707 0.12878664 -0.27501902 -0.07763067 -0.1978081 -0.18316454 0.5205184 -0.21940154
-0.5535055 -0.22141497 -0.4716901 0.05303035 -0.085889995 0.30718318 -0.10672226 0.11050606
0.025968635 -0.31805068 0.6094033 -0.3330619 -0.059998307 -0.24821286 0.18438262 -0.24744877
-0.3356986 0.11122497 0.36393213 0.05637538 -0.3863351 0.36956668 -0.0037862938 0.17283477
0.25229543 -0.30105639 -0.23576838 -0.045856 -0.37388703 0.48904476 1.0786779 0.40673226
-0.07800303 -0.008677024 -0.14332612 -0.20888348 -0.16067362 -0.100542344 0.22957598 -0.21043754
-1.0234672 0.20289727 1.382917 0.2726046 0.57270384 0.7079025 1.1441882 0.4531729
-0.37599593 -0.116397135 0.26518878 -0.085781515 -0.06677478 -0.056370664 -0.2623833 0.09860218
0.11673722 -0.14397979 -0.26391768 0.016401235 0.24503987 0.37197554 1.7903432 0.54639584
0.048226584 0.1957029 -0.6417243 0.26297307 2.216717 0.49707568 -0.24538638 0.1728469
0.57343346 -0.11107663 -1.5440495 -0.35557315 -0.2420373 0.1201911 -0.44622898 -0.059677802
0.39778262 0.047444362 -1.6658858 -0.23943038 -0.51622224 -0.2617174 -0.3067004 -0.05829768
-0.07892696 -0.34453863 0.37716454 -0.2811369 -0.6414663 0.09870668 0.13642661 0.048800923
00000000: b755 de3f cb89 973e de80 1e40 cc40 813e
00000010: b08e b13e b1d1 7cbe e493 d13e 8199 8fbe
00000020: 68e3 de3f 9ac6 d63e 7eea 753f f7d3 8a3e
00000030: 8448 07bd 75bd ca3c 8838 82be 0362 203d
00000040: 8842 233f c155 5cbe d357 75bf c4a1 95be
00000050: 2328 7cbe 5ec4 db3a 5e05 a63e e8cd 113e
00000060: d1b2 2ebd d313 babe 88cf 34bf cd29 56bb
00000070: c0fd dbbe 2d27 42bd 98fe 34be 995b 503e
00000080: 4f7f 94bf 166b cbbe 35db 1bbf 61ad 60be
00000090: 456f b6be 75f4 233e 838c 393e 99d9 433d
000000a0: 4a6e 05be dd6d b5bd 8d46 15be f353 6ebe
000000b0: c7da e23f d885 313f 092a b93f a448 e73e
000000c0: 6f77 283f 610e 06be 19db 0bbf b72e 75be
000000d0: 1c0e fbbc a3c8 633d 26a4 a3be 64b0 793e
000000e0: c0f9 5fbe 1a3b 0d3f 638a f43f 3520 e73e
000000f0: 3a50 80be b0cb f0bd a567 a63e a4c2 7cbe
00000100: 28b7 853e 50c3 bfb8 da04 a33d 188f f4bc
00000110: 4648 d2bd 9256 8fbd f493 743e b624 de3c
00000120: 5643 f1bf 394a d0be 6ec9 b0be 5e52 49be
00000130: d113 2b3f 5f6e 0e3e a16f ecbe efc2 0c3d
00000140: 8de3 a4be 5bcb ee3c 2a84 9c3e cab8 29be
00000150: 6d7c 42bf 06a0 a13e 9499 5f3f 195f f0bc
00000160: fe66 d1be ecd5 8bbc 15bd 053f 7a35 c53d
00000170: 5c2e dabe e5fa 2d3e 508a 38be f48a 233e
00000180: d2d0 123f af6d 233e 0124 973d d050 eb3a
00000190: 3f82 03bf 1e55 56be 0735 0cbf a166 2e3d
000001a0: fd4f 9c3e f716 c9be 63a7 d4be d54b 81be
000001b0: 91c5 003f 023b bc3b 5a65 3ec0 6110 debe
000001c0: 03ba a5be ec20 f5bd ede5 abbd 5bea 79be
000001d0: cd14 083e 1238 643e e8a9 64be 3a87 9a3c
000001e0: cb25 f4be 0b75 643e 08a3 843e 57b1 ebbd
000001f0: 0bee 243f 0302 eabd 9728 2ebf 880e 42be
00000200: 8204 6c3e e116 ecbd 31d1 9cbe 0ecf 553e
00000210: a74e c9be 4002 76b8 7fc1 0ebf 1a03 8b3e
00000220: 8704 083d cb23 cb3d 0614 34be 400f 47be
00000230: a131 2b3f 68ba 09be 0199 e93e 6388 853e
00000240: b322 483f 4bf5 bbbe 7f46 73bf 1281 b4be
00000250: 2a76 09bf aac8 283f 0d92 943f 0e47 103f
00000260: 5840 66bd a5e0 033e 4bcf 8cbe d4fc 9ebd
00000270: 358e 4abe 7c8f 3bbe b240 053f ccaa 60be
00000280: 89b2 0dbf 9bba 62be 5d81 f1be 5a36 593d
00000290: 18e7 afbd 1d47 9d3e 3391 dabd 0051 e23d
000002a0: 2dbc d43c 8ad7 a2be db01 1c3f 1787 aabe
000002b0: c9c0 75bd 832b 7ebe ccce 3c3e 3663 7dbe
000002c0: b0e0 abbe ebc9 e33d 5055 ba3e dfe9 663d
000002d0: b7cd c5be d837 bd3e 7823 78bb 99fb 303e
000002e0: de2c 813e 1024 9abe 446d 71be 80d3 3bbd
000002f0: 1f6e bfbe 1364 fa3e 1e12 8a3f 363f d03e
00000300: 0dc0 9fbd 142a 0ebc 15c4 12be 8de5 55be
00000310: a087 24be 25e9 cdbd f715 6b3e f07c 57be
00000320: f900 83bf 4dc4 4f3e 6d03 b13f d592 8b3e
00000330: b89c 123f 1939 353f c274 923f 4706 e83e
00000340: 8a82 c0be 9f61 eebd d3c6 873e 38ae afbd
00000350: 37c1 88bd ede4 66bd 1b57 86be f1ef c93d
00000360: ec13 ef3d 706f 13be 3820 87be e25b 863c
00000370: bbeb 7a3e 9473 be3e f729 e53f 99e0 0b3f
00000380: 3d89 453d 5766 483e 0b48 24bf 68a4 863e
00000390: b1de 0d40 b480 fe3e 9146 7bbe c7fe 303e
000003a0: 89cc 123f 257c e3bd 6aa3 c5bf af0d b6be
000003b0: a0d8 77be c026 f63d 2078 e4be b670 74bd
000003c0: 2aaa cb3e 0555 423d bf3b d5bf 3d2d 75be
000003d0: 2427 04bf d3ff 85be d607 9dbe 8cc9 6ebd
000003e0: 75a4 a1bd 5e67 b0be b61b c13e 2df1 8fbe
000003f0: 2337 24bf ba26 ca3d 6bb3 0b3e 7ae3 473d

fc1.bias f4 [128]
-0.28609493 -0.21721974 -0.23843698 -0.47866267 -0.9010348 0.7520867 0.7081273 0.79302996
-0.19579083 0.23750353 -0.3164561 -0.20729573 0.33300292 0.640296 0.059906848 0.7380789
-0.6173822 0.74686635 -0.06419459 0.39112675 0.7268133 0.31684858 -0.36335078 0.31037325
0.31094408 0.6394407 0.14199935 -0.4880119 0.66481715 0.31992805 0.5139616 -0.59794325
0.75844646 0.6658763 0.48915505 -0.6152321 -0.59012985 0.2525727 0.33077335 0.37238252
0.6565433 0.69044787 0.3862035 0.46289155 0.42351875 -0.56786376 -0.35350484 0.19030368
0.7983562 0.54335344 -0.5737409 -0.333162 0.4056054 0.34431422 0.35821947 -0.39280027
0.41155234 0.063536264 -0.9179599 0.66325706 -0.8919639 0.6694484 0.51586956 0.33193254
0.309561 0.67969334 -0.33848044 -0.7749479 0.7668495 -0.6067725 -0.96838725 -0.44899088
0.36193392 -0.56610894 0.35499373 -0.8587531 0.58464277 0.77646625 -0.6351576 -0.35478318
-0.6019842 -0.26308602 0.026478404 0.6589904 -1.005498 -0.07412928 -0.48117787 0.73753786
0.1511995 0.37991533 -0.49641085 0.78639686 0.43025908 -0.78681177 0.3519854 0.275671
0.38598475 -0.5505003 0.757208 0.61533076 0.4704825 0.31087413 0.3685684 0.5750643
0.7860402 -0.40969878 0.12711377 -0.35468698 -0.39604405 -0.6873706 -0.734985 0.2856532
-0.52287596 0.73277676 -0.5266823 0.16404948 -1.0102187 -0.33758104 -0.19927363 0.67209244
0.035648443 0.35498297 0.41378912 0.45212013 -0.56745243 0.3028844 -0.4791547 0.81711495
00000000: 097b 92be da6e 5ebe d328 74be 4613 f5be
00000010: 37aa 66bf c188 403f d547 353f 0304 4b3f
00000020: 647d 48be 2034 733e 8906 a2be 5545 54be
00000030: 5c7f aa3e 70ea 233f e260 753d bdf2 3c3f
00000040: c30c 1ebf a232 3f3f 7478 83bd c441 c83e
00000050: 7010 3a3f fa39 a23e 1d09 babe 3ee9 9e3e
00000060: 1034 9f3e 63b2 233f 4768 113e b2dc f9be
00000070: 7531 2a3f 9ccd a33e fd92 033f cf12 19bf
00000080: 8c29 423f df76 2a3f 8872 fa3e da7f 1dbf
00000090: c012 17bf 3551 813e 205b a93e eca8 be3e
000000a0: 3913 283f 31c1 303f 77bc c53e 1f00 ed3e
000000b0: 73d7 d83e 855f 11bf 96fe b4be f8de 423e
000000c0: 1261 4c3f 3619 0b3f afe0 12bf 3694 aabe
000000d0: 83ab cf3e f449 b03e 8b68 b73e 1e1d c9be
000000e0: fdb6 d23e 4d1f 823d 6cff 6abf 37cb 293f
000000f0: bf57 64bf f860 2b3f 0710 043f 10f3 a93e
00000100: c87e 9e3e 6200 2e3f 4f4d adbe fc62 46bf
00000110: 4050 443f 7155 1bbf 3ae8 77bf 22e2 e5be
00000120: 674f b93e 84ec 10bf bdc1 b53e 3ed7 5bbf
00000130: 26ab 153f 7ec6 463f b099 22bf 24a6 b5be
00000140: a31b 1abf 36b3 86be 3de9 d83c 98b3 283f
00000150: 29b4 80bf 18d1 97bd f25c f6be 48cf 3c3f
00000160: 0bd4 1a3e 4384 c23e 9029 febe 4e51 493f
00000170: eb4a dc3e 7f6c 49bf 6e37 b43e c024 8d3e
00000180: cb9f c53e 96ed 0cbf 62d8 413f 5186 1d3f
00000190: 15e3 f03e e52a 9f3e ffb4 bc3e 6a37 133f
000001a0: ee39 493f 0ac4 d1be 1d2a 023e 8899 b5be
000001b0: 49c6 cabe 85f7 2fbf fa27 3cbf 2341 923e
000001c0: 33db 05bf 4297 3b3f a7d4 06bf 96fc 273e
000001d0: d94e 81bf 6cd7 acbe 630e 4cbe 400e 2c3f
000001e0: 1a04 123d 54c0 b53e 2bdc d33e 4a7c e73e
000001f0: 9044 11bf aa13 9b3e c453 f5be 722e 513f

fc2.weight f4 [64, 128]
-0.51069045 0.00033960468 -0.89791924 0.019830508 -0.45005015 0.24316859 0.3453361 0.14348845
-0.21284786 0.08940395 0.06019462 -0.59757894 0.27386993 0.21340166 -0.09654926 0.20773244
-0.051424805 0.30789217 -0.60738164 0.16435747 0.31221977 0.13698207 -0.56610435 0.13834123
-0.1283933 0.2354856 -0.020311315 -0.34614596 0.29392782 -0.054445058 0.086701855 -0.2117125
0.17586125 0.11972477 0.08231314 -0.28024915 -0.24650034 -0.86469394 0.027980695 0.24549475
0.3513309 0.23118941 0.30102855 0.17262062 0.21800223 -0.029975995 0.0074785873 -0.3389113
0.24631184 0.21973453 0.041978598 -0.6714855 0.22481011 0.02261035 0.13499533 -0.9897712
0.15619677 0.39865145 -0.43711755 0.14171615 -0.27359545 0.2204104 0.3099269 0.15494846
0.23929119 0.35957882 -0.16222858 -0.355516 0.18676111 -0.22584671 -0.8858688 0.02519659
0.21967886 -0.0061618565 0.25302044 -0.47913763 0.26815483 0.18647973 -0.890616 -0.7551222
0.024251165 -1.0262716 -0.13934758 0.16333906 -0.6223476 -0.18684936 -0.30010387 0.16600586
-0.002457445 0.026286107 -0.21167544 0.31410447 0.16456686 -1.0309784 0.18155997 0.3096374
0.20786917 -0.63715994 0.16394167 0.15963824 0.22346696 0.027287833 0.06912172 0.2315461
0.32996973 -0.75953627 -0.9742118 -0.78304154 -1.8725173 -0.5748254 -0.13226905 0.1655299
0.05484107 0.14777514 -0.26715097 0.026417464 -0.7211674 -2.3804183 -0.9095946 0.13993461
-0.20456259 0.17308487 0.17394309 0.049557224 -1.4471016 0.12008556 -0.0010143071 0.17731345
-0.02112714 0.10205792 -0.7375027 0.13006455 -0.5630418 0.29765803 0.20059605 0.24471718
0.25502843 0.061067842 -0.101645224 -0.8704854 0.45578033 0.19697376 -0.58399886 0.14455065
-0.06447902 0.24000534 -0.67645454 0.4579118 0.16115803 0.051315647 0.20519981 0.005680385
-0.37128055 0.08225883 0.2643243 -1.5748074 0.0936138 0.22766002 0.0969742 -0.4172672
0.23884547 0.23484485 0.19900125 -0.5230177 -0.78242284 -0.0017008795 0.07987518 0.2879095
0.11657571 0.1641065 0.32764322 0.05683594 0.21008135 -0.08159359 -0.025336862 -0.044966564
0.25791642 0.10916779 0.26970112 0.049627535 0.12559833 0.15860577 0.23554285 1.41246
0.116293706 0.3830178 -0.7094324 0.06231724 -0.561227 0.2584496 0.1716066 0.19299829
0.15832007 0.19867912 2.1255124 -0.8181642 0.17829739 -0.41065884 -0.7195059 0.017186128
0.24637999 0.48426244 0.20741883 -0.4469033 0.19033788 0.19865337 -0.100975476 -0.71924824
-0.06813477 -0.69881207 -0.36870039 0.27090985 -0.35309634 1.9051694 0.4382995 0.27331275
0.24282567 0.2629321 -0.089016676 0.2546659 0.14848976 -0.83206105 0.0507145 0.25476763
0.15720572 -1.4102651 0.14059372 0.16319935 0.104888104 0.15955912 0.34796676 0.13925666
0.21882036 0.025563473 -1.32367 -1.083473 -1.5979598 0.087991744 0.20776303 0.098870136
0.46941778 0.26309782 -0.008568424 -0.010074988 -1.0408269 -1.8657339 -1.694637 0.18294302
0.1001351 0.18267772 0.19778211 0.18684848 -2.6272569 0.31893742 -0.04844075 0.17833965
00000000: 9cbc 02bf f80c b239 09de 65bf 9773 a23c
00000010: f96c e6be 3001 793e e5cf b03e a3ee 123e
00000020: caf4 59be 6b19 b73d a28e 763d effa 18bf
00000030: ae38 8c3e f785 5a3e 9ebb c5bd d0b7 543e
00000040: d1a2 52bd 0ba4 9d3e 5d7d 1bbf 534d 283e
00000050: 45db 9f3e 0745 0c3e 37ec 10bf 53a9 0d3e
00000060: 8979 03be 2323 713e ea63 a6bc 0b3a b1be
00000070: b57d 963e c801 5fbd be90 b13d 29cb 58be
00000080: f914 343e 4332 f53d cb93 a83d d17c 8fbe
00000090: 966a 7cbe 955c 5dbf c537 e53c fa62 7b3e
000000a0: a5e1 b33e ebbc 6c3e 6a20 9a3e 76c3 303e
000000b0: fa3b 5f3e 3890 f5bc f00e f53b c885 adbe
000000c0: 2c39 7c3e 1702 613e c0f1 2b3d 79e6 2bbf
000000d0: 9f34 663e 5739 b93c 373c 0a3e a561 7dbf
000000e0: 0cf2 1f3e 0b1c cc3e dfcd dfbe 0a1e 113e
000000f0: b414 8cbe 44b3 613e bdae 9e3e cfaa 1e3e
00000100: c008 753e b71a b83e 401f 26be 3106 b6be
00000110: 4e3e 3f3e 5c44 67be 4cc8 62bf 1469 ce3c
00000120: 7ff3 603e 66e9 c9bb e58b 813e 8751 f5be
00000130: 974b 893e 8bf4 3e3e 69ff 63bf b04f 41bf
00000140: 61aa c63c de5c 83bf 22b1 0ebe 5b42 273e
00000150: 2c52 1fbf 7055 3fbe 37a7 99be 71fd 293e
00000160: 160d 21bb f655 d73c 72c1 58be 4dd2 a03e
00000170: 3784 283e 1af7 83bf dbea 393e cb88 9e3e
00000180: a8db 543e ea1c 23bf 53e0 273e 3578 233e
00000190: 86d4 643e bc8a df3c b08f 8d3d 6c1a 6d3e
000001a0: cbf1 a83e f870 42bf f265 79bf 6975 48bf
000001b0: a6ae efbf c227 13bf 8a71 07be ac80 293e
000001c0: 08a1 603d 5e52 173e 03c8 88be 7069 d83c
000001d0: 6d9e 38bf c658 18c0 31db 68bf 054b 0f3e
000001e0: db78 51be 293d 313e 231e 323e 84fc 4a3d
000001f0: a03a b9bf 6bef f53d 80f2 84ba a891 353e
00000200: d312 adbc be03 d13d facc 3cbf a42f 053e
00000210: 8223 10bf a266 983e 0d69 4d3e 2497 7a3e
00000220: 1693 823e 4622 7a3d 5f2b d0bd 22d8 5ebf
00000230: 0a5c e93e 7db3 493e f380 15bf 1605 143e
00000240: 940d 84bd f6c3 753e 202c 2dbf 6a73 ea3e
00000250: 9c06 253e 5b30 523d e61f 523e 8622 ba3b
00000260: 7c18 bebe 5177 a83d 8455 873e 4a93 c9bf
00000270: 98b8 bf3d b51f 693e 699a c63d 0ca4 d5be
00000280: e893 743e 2b7b 703e fcc6 4b3e 7de4 05bf
00000290: dd4c 48bf 0cf0 deba 9995 a33d e068 933e
000002a0: 3fbf ee3d 890b 283e dac0 a73e cdcc 683d
000002b0: 911f 573e 8a1a a7bd 408f cfbc dc2e 38bd
000002c0: 9f0d 843e 5d93 df3d 4416 8a3e 3e46 4b3d
000002d0: d99c 003e 8d69 223e 2532 713e 7dcb b43f
000002e0: 652b ee3d e91a c43e 5d9d 35bf 5d40 7f3d
000002f0: 93ac 0fbf 8253 843e a4b9 2f3e 58a1 453e
00000300: a81e 223e 8a72 4b3e 6508 0840 3673 51bf
00000310: 9793 363e e041 d2be 8a31 38bf ecc9 8c3c
00000320: 094b 7c3e 3ff1 f73e 9a65 543e 82d0 e4be
00000330: efe7 423e ca6b 4b3e 3bcc cebd a720 38bf
00000340: 3e8a 8bbd 59e5 32bf 4cc6 bcbe b2b4 8a3e
00000350: 0bc9 b4be 97dc f33f cb68 e03e a6ef 8b3e
00000360: 4ba7 783e 099f 863e 604e b6bd 9263 823e
00000370: b30d 183e f401 55bf 02ba 4f3d e770 823e
00000380: 89fa 203e 9183 b4bf cdf7 0f3e bb1d 273e
00000390: 93cf d63d 7763 233e b328 b23e 4c99 0e3e
000003a0: 7212 603e 7d6a d13c 056e a9bf 3eaf 8abf
000003b0: f289 ccbf 0435 b43d d5bf 543e 6d7c ca3d
000003c0: 8757 f03e c2b4 863e 9362 0cbc 9011 25bc
000003d0: d139 85bf 5ed0 eebf dde9 d8bf 6a55 3b3e
000003e0: a213 cd3d de0f 3b3e 6587 4a3e 3555 3f3e
000003f0: fa24 28c0 c44b a33e cf69 46bd ab9e 363e

fc2.bias f4 [64]
0.30288216 0.2642871 -0.07603445 0.27592754 -0.06456664 -0.031524144 0.27873933 0.41655168
0.25888166 0.28290012 -0.049554978 0.24861592 -0.2744292 -0.0120156305 -0.3318739 -0.09551757
0.32503885 -0.10794631 0.31980833 -0.024282208 0.2070339 0.4148873 -0.029864995 -0.08301609
-0.08066213 0.05259484 0.015846506 -0.06372869 0.32686028 -0.08376923 0.18174744 -0.07589979
0.25571185 -0.07999038 -0.09808225 0.35723165 -0.049091395 0.383154 0.12036579 0.24265425
0.05653105 -0.017257737 0.26341435 -0.008283527 0.2863179 -0.14537527 -0.029752532 0.20116816
0.002744777 0.42525285 0.3082922 0.37697205 0.23051216 0.049258243 -0.057742067 0.23301247
0.09928755 0.35981923 0.02329578 0.021700658 0.32973817 0.33117718 0.21280837 0.23757273
00000000: 5f13 9b3e a450 873e f3b7 9bbd 6046 8d3e
00000010: 843b 84bd 761f 01bd ecb6 8e3e 4346 d53e
00000020: 238c 843e 49d8 903e 29fa 4abd 2c95 7e3e
00000030: fc81 8cbe 35dd 44bc 60eb a9be b79e c3bd
00000040: 7e6b a63e f412 ddbd ebbd a33e 7beb c6bc
00000050: b200 543e 1c6c d43e 6fa7 f4bc 5704 aabd
00000060: 3032 a5bd b06d 573d 88d0 813c 3084 82bd
00000070: 3b5a a73e 348f abbd 001c 3a3e 5971 9bbd
00000080: aaec 823e ffd1 a3bd 59df c8bd 11e7 b63e
00000090: 0f14 49bd c32c c43e 5782 f63d 5b7a 783e
000000a0: 1a8d 673d 1960 8dbc 3fde 863e a1b7 07bc
000000b0: 4398 923e 41dd 14be 95bb f3bc 07ff 4d3e
000000c0: b7e1 333b beba d93e 7ad8 9d3e 7b02 c13e
000000d0: 610b 6c3e 03c3 493d f282 6cbd d29a 6e3e
000000e0: 4557 cb3d 3a3a b83e cbd6 be3c 94c5 b13c
000000f0: 71d3 a83e 0e90 a93e 70ea 593e 4446 733e

fc3.weight f4 [2, 64]
0.31492758 0.10401102 -0.09869856 0.2994742 -0.078353286 0.07135482 0.41845614 0.413232
0.33410364 0.32025057 0.01745618 0.25173432 0.43665117 -0.08253113 -0.2966722 0.013812019
0.34329033 -0.06406109 0.41954672 0.0009781589 0.37231407 0.43225336 -0.015746238 -0.09425951
0.08285116 -0.047792736 -0.0435977 0.0035002513 0.36430812 -0.035398707 0.24540876 -0.07997674
0.42171544 -0.07194429 -0.008384264 0.43135688 -0.019772675 0.45580167 0.086882524 0.42470294
-0.094112836 -0.020306757 0.3175452 -0.0777298 0.3889699 -0.04605369 0.122945905 0.44963977
-0.07923118 0.41497383 0.3909597 0.22736897 0.16394657 0.024911236 0.038643017 0.2503803
0.04856772 0.41642883 -0.03470266 0.101292044 0.42660046 0.23840237 0.30552584 0.16409686
0.34621596 0.42349264 0.08488022 0.4449014 -0.027702782 -0.12392159 0.29245678 0.36148998
0.32939488 0.2652258 -0.08676273 0.17139396 -0.31941566 0.04284832 0.06864392 -0.04992653
0.3704788 -0.093125 0.40617037 -0.01804024 0.3461974 0.5089777 -0.06090659 0.026166795
-0.060404725 -0.05891868 -0.071718104 -0.095389724 0.3734876 0.07734699 0.35534957 -0.05016603
0.2876531 -0.04592815 -0.085846215 0.3467521 0.010929568 0.29294524 0.33507144 0.23266284
0.03368926 0.032283094 0.3202693 0.046733037 0.25304165 -0.07854332 -0.008431224 0.27531543
0.117102414 0.36174884 0.32188153 0.4245137 0.19211395 -0.06924438 0.08909744 0.32963866
0.18090153 0.2538976 0.034568343 -0.11489114 0.41467762 0.39183033 0.34201914 0.43248928
00000000: 303e a13e bb03 d53d 7822 cabd af54 993e
00000010: b077 a0bd 7a22 923d e23f d63e 2593 d33e
00000020: a20f ab3e e2f7 a33e 4300 8f3c 52e3 803e
00000030: be90 df3e 1506 a9bd 6be5 97be ce4b 623c
00000040: c0c3 af3e 7632 83bd d4ce d63e 9135 803a
00000050: f39f be3e 5050 dd3e 41fe 80bc 210b c1bd
00000060: dead a93d 51c2 43bd 8093 32bd 7964 653b
00000070: 9886 ba3e 3cfe 10bd 6f4c 7b3e d8ca a3bd
00000080: 16eb d73e 8757 93bd 275e 09bc cfda dc3e
00000090: 4efa a1bc d65e e93e 77ef b13d aa72 d93e
000000a0: 3bbe c0bd 5b5a a6bc 4995 a23e cd30 9fbd
000000b0: 1027 c73e cba2 3cbd 10cb fb3d 2f37 e63e
000000c0: f543 a2bd 7377 d43e df2b c83e 69d3 683e
000000d0: 9ce1 273e a612 cc3c 2448 1e3d d931 803e
000000e0: f2ee 463d 2936 d53e 6024 0ebd 3472 cf3d
000000f0: 606b da3e c01f 743e e26d 9c3e 0209 283e
00000100: 3843 b13e 07d4 d83e aed5 ad3d 1eca e33e
00000110: f2f0 e2bc 9aca fdbd e5bc 953e 3715 b93e
00000120: 72a6 a83e adcb 873e a8b0 b1bd e681 2f3e
00000130: 738a a3be b881 2f3d 2f95 8c3d c37f 4cbd
00000140: 66af bd3e 52b8 bebd 90f5 cf3e 20c9 93bc
00000150: c940 b13e 5d4c 023f 3079 79bd bf5b d63c
00000160: f26a 77bd b754 71bd f1e0 92bd b05b c3bd
00000170: c439 bf3e 1968 9e3d 61f0 b53e e57a 4dbd
00000180: 4447 933e 281f 3cbd 24d0 afbd 7e89 b13e
00000190: ee11 333c ebfc 953e 7c8e ab3e 2b3f 6e3e
000001a0: c0fd 093d 473b 043d 56fa a33e 246b 3f3d
000001b0: ad8e 813e 52db a0bd 1e23 0abc 25f6 8c3e
000001c0: 64d3 ef3d 2537 b93e a8cd a43e dc59 d93e
000001d0: 85b9 443e ffcf 8dbd b878 b63d 66c6 a83e
000001e0: 403e 393e defe 813e 8997 0d3d 0c4c ebbd
000001f0: a050 d43e fc9d c83e 221d af3e 3c6f dd3e

fc3.bias f4 [2]
0.38666236 0.23739444
00000000: 9cf8 c53e 8717 733e
