CartPole-DQN/checkpoints/model_ep50.pth (torch, 38694 bytes, 6 tensors)

fc1.weight f4 [128, 4]
0	0x3fc80fa5	1.5629774
1	0x3e7a7f00	0.24462509
2	0xbf149f02	-0.58055127
3	0xbefb3bda	-0.490691
4	0x3eda0e01	0.4258881
5	0xbea6d722	-0.32586008
6	0x3ec19ec3	0.37816438
7	0xbe4e29c7	-0.20133124
8	0x3fb89ea7	1.4423417
9	0x3e4efcbc	0.20213598
10	0xbf6b4153	-0.9189655
11	0xbd499e74	-0.04922338
12	0xbd0e9338	-0.034808367
13	0x3cbc6159	0.022995638
14	0xbecfb070	-0.405643
15	0xbd9b31f5	-0.07577888
16	0x3f8fb21b	1.1226228
17	0x3d8931fa	0.066989854
18	0xbf3b3508	-0.73127794
19	0xbee26c69	-0.44223335
20	0xbe873906	-0.26410693
21	0x3ca31aee	0.019910302
22	0x3e948b5f	0.29012582
23	0x3e17920a	0.14801803
24	0xbd2cbac4	-0.0421703
25	0xbebc1836	-0.3673722
26	0xbf390ef0	-0.7228842
27	0x3d618e63	0.05506743
28	0xbedf021c	-0.43556297
29	0xbc80bdef	-0.015715567
30	0xbe445aa0	-0.19175196
31	0x3e5c4da3	0.21513991
32	0xbf78f3ed	-0.972472
33	0xbef1087e	-0.47076792
34	0x3f2ac298	0.66703176
35	0x3e261363	0.16218333
36	0xbecb5172	-0.39710575
37	0x3e325067	0.17413484
38	0x3e0ca6a0	0.13735437
39	0x3c8e0cbf	0.017340062
40	0xbe4af7cf	-0.19821094
41	0x3d49cd14	0.049267843
42	0x3e94f004	0.29089367
43	0xbeeb7c69	-0.45993355
44	0x3fd7b1ba	1.6851113
45	0x3f1a5547	0.6028637
46	0xbf60a468	-0.87750864
47	0x3de42f89	0.11141879
48	0x3f2f67bb	0.68517655
49	0xbecb76b4	-0.39739
50	0xbf317802	-0.6932374
51	0xbd309e92	-0.043119974
52	0xbd156f01	-0.036482815
53	0x3da3f741	0.08006144
54	0xbeafbf58	-0.3432567
55	0x3e8837f0	0.26605177
56	0xbf1e0bc1	-0.61736685
57	0x3ecbe08d	0.39819756
58	0x3f0f77a3	0.56041926
59	0xbec3adc8	-0.38218522
60	0xbe80a8a9	-0.25128677
61	0xbda1896f	-0.078875415
62	0x3e9aca9e	0.3023271
63	0xbe828ffb	-0.25500473
64	0x3ebd2e43	0.36949357
65	0x3de04c8c	0.109521
66	0x3e71b0be	0.23602578
67	0xbe01bda2	-0.12669995
68	0xbde7f3ec	-0.11325821
69	0xbd2fc876	-0.042915784
70	0x3e564106	0.20923242
71	0x3cc170d4	0.023613371
72	0xbfc010e9	-1.500516
73	0xbe3405cb	-0.17580335
74	0x3f90ea8c	1.1321578
75	0x3d2456b5	0.040121753
76	0x3ef51980	0.47871017
77	0xbdc79a84	-0.097462684
78	0xbdd8e764	-0.10591009
79	0x3e8e9220	0.2784586
80	0xbeaf27ad	-0.34209958
81	0x3d616f1c	0.055037603
82	0x3e9297ed	0.28631535
83	0xbe2b9e77	-0.16759668
84	0xbf590dea	-0.84786856
85	0x3ee369f6	0.4441678
86	0x3f519b2b	0.8187739
87	0xbebec428	-0.3725903
88	0xbf121911	-0.570695
89	0x3d95fa5b	0.07323142
90	0x3f7c26e2	0.9849683
91	0x3efc9cbc	0.4933833
92	0xbee6f7e1	-0.45110992
93	0x3e42ff06	0.19042596
94	0xbe52e23a	-0.20594111
95	0x3e1990cb	0.1499664
96	0x3fee1811	1.8601094
97	0x3dbaa050	0.091126084
98	0xbf9b892f	-1.215124
99	0xbbb8d98d	-0.0056411684
100	0xbf02e728	-0.51133966
101	0xbe306b00	-0.17228317
102	0xbf113433	-0.56720275
103	0x3d39307b	0.04521225
104	0x3eca2d3e	0.39487642
105	0xbef1bcbb	-0.47214302
106	0xbe947535	-0.28995672
107	0x3d4e2d87	0.050336387
108	0x3f364bde	0.71209514
109	0x3e896d35	0.2684113
110	0xbf535eea	-0.825667
111	0xbeebb4a7	-0.46036264
112	0xbea2b54b	-0.3177894
113	0xbda59028	-0.08084136
114	0xbdff5706	-0.1246777
115	0xbe891917	-0.26776955
116	0x3e5e9ef6	0.21740326
117	0x3ee1255a	0.4397381
118	0x3d9beda7	0.07613688
119	0xbebb5976	-0.3659169
120	0xbefe31f8	-0.49647498
121	0x3eb82f8f	0.35973784
122	0x3e8966b1	0.2683616
123	0xbee0ab77	-0.43880817
124	0x3f551b9c	0.83245254
125	0xbcb5fed7	-0.022216244
126	0xbf07e4de	-0.530836
127	0xbe67aed3	-0.22625284
128	0x3e69ce23	0.22832541
129	0xbdb413f7	-0.087928705
130	0xbea5ffd6	-0.3242175
131	0x3e6ca915	0.23111375
132	0xbed401e9	-0.41407707
133	0x3ca4a304	0.020097263
134	0xbf13efde	-0.57787883
135	0x3e8e216f	0.27759883
136	0xbc30c548	-0.010789223
137	0x3e4bbe7f	0.19896887
138	0xbe39f49a	-0.18159714
139	0xbf02370a	-0.5086523
140	0x3b059516	0.0020383052
141	0xbea28fc4	-0.3175031
142	0x3ea8c798	0.32964778
143	0x3df1705f	0.11789011
144	0x3f8213ce	1.0162294
145	0xbe421c3b	-0.18956082
146	0xbf8b24bc	-1.0870585
147	0xbef9e6bc	-0.4880885
148	0xbf3d064b	-0.7383773
149	0x3f142ad3	0.57877845
150	0x3f51426d	0.8174198
151	0x3ece9232	0.40345913
152	0xbdf605a5	-0.12012795
153	0x3e6e7207	0.23285685
154	0xbe842757	-0.25811264
155	0xbed21aa6	-0.41035956
156	0xbe8482f1	-0.2588115
157	0xbe34c771	-0.17654206
158	0x3efaef10	0.49010515
159	0xbe6a7cd8	-0.22899187
160	0xbf0cdc6e	-0.5502385
161	0xbe3cd2af	-0.18439744
162	0xbefad9ba	-0.48994237
163	0x3d73482f	0.05939501
164	0xbdc2acf4	-0.095056444
165	0x3eacb959	0.3373516
166	0xbe095b13	-0.13413648
167	0x3dc79d5a	0.09746809
168	0xbe3c6018	-0.18396032
169	0xbebaf466	-0.36514586
170	0x3f096b29	0.5367914
171	0xbeb14ad1	-0.34627393
172	0xbdf0431a	-0.117315486
173	0xbe7d2501	-0.24721147
174	0x3dc6647e	0.09687136
175	0xbe9f1091	-0.31067327
176	0xbebb2938	-0.36554885
177	0x3dfb7c04	0.122795135
178	0x3eaec4e6	0.34134597
179	0x3daa0f6b	0.08303722
180	0xbea1a396	-0.3157012
181	0x3ee0b6ea	0.43889552
182	0x3ddcf768	0.107893765
183	0x3e001238	0.1250695
184	0x3e812cde	0.25229543
185	0xbe9a2410	-0.30105639
186	0xbe716d44	-0.23576838
187	0xbd3bd380	-0.045856
188	0xbf34aaaa	-0.7057291
189	0x3eae2721	0.34014228
190	0x3f0ee7d9	0.5582252
191	0x3e884342	0.26613814
192	0xbda716db	-0.08158656
193	0x3cb8c53a	0.022554982
194	0xbe3d1194	-0.18463737
195	0xbe6bc494	-0.23024207
196	0xbe34b10d	-0.17645665
197	0xbd98f362	-0.074682966
198	0x3e4413b3	0.1914814
199	0xbe6ca28e	-0.23108885
200	0xbf933212	-1.1499655
201	0x3e28f788	0.16500676
202	0x3fa9be1a	1.3261139
203	0x3ee0dd16	0.43918675
204	0xbc246c7f	-0.010035633
205	0x3e442139	0.19153298
206	0x3f4a5848	0.79040956
207	0x3eea2e0e	0.45738262
208	0xbed62172	-0.41822392
209	0xbdce15f2	-0.100627795
210	0x3e5932bc	0.2121076
211	0xbdf2ed23	-0.118616365
212	0xbe18e76d	-0.14932032
213	0xbe3590a7	-0.17730962
214	0xbea9f497	-0.3319442
215	0x3e623e4c	0.22094077
216	0x3dca3ca4	0.098748475
217	0xbe07e399	-0.13270415
218	0xbe94d853	-0.29071292
219	0x3d3afbef	0.04565042
220	0xbe0a7b10	-0.13523507
221	0x3e8bf769	0.27337196
222	0x3faf6eed	1.3705727
223	0x3ea93e96	0.33055562
224	0x3dc54ea4	0.0963414
225	0x3e7eadf8	0.24871051
226	0xbf28fcfb	-0.6601102
227	0x3e9e5b6b	0.3092912
228	0x3f337a4a	0.70108473
229	0xbe8d206b	-0.27563795
230	0xbf807add	-1.0037495
231	0x3dc928ab	0.0982221
232	0x3f7976d1	0.97446924
233	0x3e01ddb8	0.12682235
234	0xbfac5503	-1.3463444
235	0xbef70f2d	-0.48253766
236	0xbe7af773	-0.24508457
237	0x3e1b213a	0.15149394
238	0xbefd3b42	-0.49459273
239	0xbdc6aa92	-0.097005025
240	0x3f48029c	0.7812898
241	0x3e8f82e4	0.2802955
242	0xbfc14b56	-1.5101116
243	0xbec09e5a	-0.37620813
244	0xbf0731b8	-0.5281024
245	0xbe686775	-0.22695716
246	0xbea361b2	-0.31910473
247	0xbd7c0c82	-0.061535366
248	0xbde76a8b	-0.11299618
249	0xbea720c8	-0.32642198
250	0x3eadc4c5	0.33939186
251	0xbe999478	-0.29996085
252	0xbf2d018c	-0.67580485
253	0x3ded65bd	0.11591671
254	0x3e03c03a	0.12866297
255	0x3d87fa6c	0.06639561

fc1.bias f4 [128]
0	0xbe510c95	-0.20414956
1	0xbe0d384c	-0.13791007
2	0xbeeb94da	-0.46012002
3	0xbea6bbe3	-0.3256522
4	0xbf14fc19	-0.5819717
5	0x3f2fbe67	0.68649906
6	0x3f25444d	0.64557344
7	0x3f3bc862	0.73352635
8	0xbe8082e7	-0.2509987
9	0x3e592c00	0.21208191
10	0x3dc44e36	0.0958523
11	0xbcd6df29	-0.026229458
12	0x3e21e530	0.15810084
13	0x3f16fd84	0.58980584
14	0x3d2d50ee	0.04231351
15	0x3f2dc9be	0.6788596
16	0xbf0077d6	-0.50182855
17	0x3f2f0d4c	0.68379664
18	0xbeabf826	-0.3358776
19	0x3ec60573	0.38676032
20	0x3f2ce7cc	0.67541194
21	0x3e91f00b	0.2850345
22	0xbeb210ac	-0.34778345
23	0x3e8f9ed2	0.28050858
24	0x3ec80f6d	0.3907427
25	0x3f13a2b1	0.5767012
26	0x3e2c8d41	0.16850759
27	0xbef50d8c	-0.47861898
28	0x3f1dcc3b	0.61639756
29	0x3e96c980	0.29450607
30	0x3ee219f2	0.4416042
31	0xbeda8bf4	-0.426849
32	0x3f32516f	0.6965551
33	0x3f1cf44f	0.61310285
34	0x3ed418da	0.4142521
35	0xbee4d420	-0.4469309
36	0xbebe85ff	-0.37211606
37	0x3def7a60	0.11693263
38	0x3e8c7bce	0.27438205
39	0x3ea8112c	0.328256
40	0x3f176341	0.59135824
41	0x3f26117d	0.64870435
42	0x3ea40920	0.32038212
43	0x3ed70e73	0.4200321
44	0x3ec18cc5	0.3780271
45	0xbef8a83a	-0.48565847
46	0xbeb4fe96	-0.35350484
47	0x3dd418f4	0.10356322
48	0x3f3c7301	0.7361298
49	0x3ef65696	0.48112935
50	0xbe790353	-0.24317674
51	0xbe4c8665	-0.19973142
52	0x3eae3ebc	0.34032238
53	0x3e9bc167	0.30420992
54	0x3ea6249a	0.324498
55	0xbea53eab	-0.32274374
56	0x3ebab625	0.3646709
57	0x3d10a64b	0.03531484
58	0xbf1b2ad6	-0.6061224
59	0x3f209fe4	0.62743974
60	0xbf16a24b	-0.5884139
61	0x3f1bc52c	0.60847735
62	0x3ee42eb7	0.4456689
63	0x3e99a0b7	0.30005428
64	0x3e8e548e	0.27798885
65	0x3f1ce4cf	0.61286634
66	0xbdfa0bb2	-0.12209262
67	0xbf43cceb	-0.76484555
68	0x3f359de0	0.70944023
69	0xbefc27df	-0.4924917
70	0xbf402988	-0.7506337
71	0xbee5e222	-0.44899088
72	0x3e9e85e6	0.3096153
73	0xbe87bff4	-0.26513636
74	0x3ea15577	0.31510517
75	0xbf1089ef	-0.5646047
76	0x3f0c4a82	0.5480119
77	0x3f3a28fd	0.72718793
78	0xbebea0c5	-0.37232032
79	0xbf10a825	-0.5650657
80	0xbec3e7a3	-0.38262662
81	0xbeb03318	-0.3441398
82	0x3dc22783	0.094801925
83	0x3f19504a	0.59888136
84	0xbf449b42	-0.76799405
85	0x3d946ecd	0.07247696
86	0xbec71804	-0.3888551
87	0x3f2ffc1b	0.6874406
88	0x3e064b65	0.13114698
89	0x3ea4bcab	0.32175192
90	0xbe9ea103	-0.30982217
91	0x3f390edc	0.722883
92	0x3ec77ad3	0.38960895
93	0xbefe72ea	-0.49697047
94	0x3e9b921c	0.3038491
95	0x3e830ba6	0.25594825
96	0x3eb12c6f	0.34604213
97	0xbf105396	-0.5637754
98	0x3f32b1f6	0.69802797
99	0x3f0b86da	0.5450264
100	0x3ededbac	0.4352697
101	0x3e8f7515	0.28019014
102	0x3ebd06b0	0.36919165
103	0x3f0641ae	0.5244397
104	0x3f3a2e5d	0.72726995
105	0x3d83e0bf	0.06439351
106	0xbe1d9e18	-0.15392339
107	0xbebcbabd	-0.3686122
108	0xbf0c02cd	-0.54691774
109	0xbf0ee775	-0.55821925
110	0xbec19256	-0.37806958
111	0x3e537299	0.20649184
112	0xbec78d2f	-0.38974902
113	0x3f2c4cd6	0.6730474
114	0xbea9012d	-0.3300871
115	0x3db6f673	0.08933725
116	0xbf3ac2fa	-0.7295376
117	0xbe8ecd3c	-0.27890956
118	0xbe934b17	-0.28768227
119	0x3f216fca	0.630612
120	0xbdbf3425	-0.09336118
121	0x3ea2cd7b	0.31797394
122	0x3ec10272	0.37697178
123	0x3ed2c50a	0.41165954
124	0xbe797ec6	-0.24364766
125	0x3e79d3c3	0.24397187
126	0xbef553c4	-0.4791547
127	0x3f3ffde7	0.749968

fc2.weight f4 [64, 128]
0	0xbe2a5fe0	-0.16638136
1	0xbd870df1	-0.06594456
2	0xbf02b357	-0.510549
3	0xbd4c0cab	-0.04981677
4	0xbee75317	-0.4518058
5	0x3e7fbcd1	0.24974371
6	0x3e9b2422	0.30301005
7	0x3e0c9f05	0.13732536
8	0xbeac31a1	-0.33631614
9	0x3e0b095f	0.13577794
10	0x3d5872d8	0.0528439
11	0xbefddf1e	-0.49584287
12	0x3e5f2630	0.21791911
13	0x3e733ce2	0.23753694
14	0x3c96808e	0.018371847
15	0x3e36b23c	0.17841429
16	0xbd52a2d1	-0.051424805
17	0x3e9b6037	0.30346844
18	0xbf05da77	-0.52286476
19	0x3e2e868a	0.1704351
20	0x3e97c04b	0.29638895
21	0x3e4cd7f9	0.20004262
22	0xbec19a03	-0.37812814
23	0x3e31a800	0.17349243
24	0xbe5f23f6	-0.21791062
25	0x3e45d62e	0.19319984
26	0x3c5a7f3c	0.013335999
27	0xbda70229	-0.08154709
28	0x3e812a98	0.2522781
29	0x3dc990da	0.09842081
30	0x3da51440	0.08060503
31	0xbe58cb29	-0.2117125
32	0x3e3c066c	0.18361825
33	0x3df1d302	0.11807825
34	0x3d7a0397	0.06103858
35	0xbe64f6e4	-0.22359806
36	0xbe90cb24	-0.28279984
37	0xbee5a5d8	-0.4485309
38	0x3d25d0c5	0.0404823
39	0x3e5a373d	0.21310134
40	0x3e9eccec	0.31015718
41	0x3e8569e0	0.2605734
42	0x3e852686	0.26005954
43	0x3df97c5a	0.12181921
44	0x3e7ca5ff	0.24672697
45	0xbcf59038	-0.029975995
46	0x3bf50ef0	0.0074785873
47	0xbc550686	-0.013002044
48	0x3e637cfc	0.22215647
49	0x3e44b893	0.19211034
50	0x3d67c0e4	0.05658044
51	0xbdb44309	-0.088018484
52	0x3e48a05a	0.1959242
53	0x3d186ff2	0.037216134
54	0x3e0b9604	0.13631445
55	0xbf85e82a	-1.0461476
56	0x3e7aecc8	0.24504387
57	0x3ddf1705	0.108930625
58	0xbee1b496	-0.4408309
59	0x3e047cb8	0.12938201
60	0xbe8ce59c	-0.27518928
61	0x3e303c94	0.17210609
62	0x3e834bd4	0.2564379
63	0x3e1ee05d	0.15515275
64	0x3e8497a4	0.25896943
65	0x3e9e974a	0.309748
66	0xbea32634	-0.31865084
67	0xbf2c51c1	-0.67312247
68	0x3e43433d	0.19068618
69	0xbe41c7f7	-0.18923937
70	0xbf62c84c	-0.8858688
71	0x3cce6914	0.02519659
72	0x3e50e094	0.2039817
73	0xbd2e9b6e	-0.042628698
74	0x3e6c4755	0.23074086
75	0xbef55187	-0.47913763
76	0x3e6d9f4c	0.23205298
77	0x3e4391dc	0.1909861
78	0xbeb4a415	-0.35281435
79	0xbee89de5	-0.45432964
80	0xbec21dcd	-0.3791336
81	0xbf92400f	-1.1425799
82	0x3d8ab4be	0.06772755
83	0x3e6862d6	0.22693953
84	0xbf348933	-0.7052185
85	0xbea02c05	-0.31283584
86	0xbe532295	-0.20618661
87	0x3e36be65	0.17846067
88	0x3c87de02	0.016585354
89	0x3d59e768	0.0531992
90	0xbd8702bf	-0.06592321
91	0x3e959307	0.29213735
92	0x3e771677	0.24129663
93	0xbed8395c	-0.42231262
94	0x3e3ecd5f	0.1863303
95	0x3e9888d2	0.29791886
96	0x3e7cfb29	0.24705185
97	0xbed7a075	-0.42114606
98	0x3e134eac	0.1438548
99	0x3dfe361e	0.12412666
100	0x3e6e04dc	0.23244041
101	0x3e0a3696	0.13497385
102	0x3d83f6c7	0.064435534
103	0x3e471134	0.19440156
104	0x3e94ffa6	0.29101294
105	0xbec0ee68	-0.3768189
106	0xbf3b275a	-0.7310692
107	0xbe62569f	-0.22103356
108	0xbf9fd679	-1.2487327
109	0xbf246cac	-0.6422832
110	0xbd7e26d7	-0.06204876
111	0x3e2c512d	0.16827841
112	0xbe81e5ca	-0.25370628
113	0x3e06028c	0.13086909
114	0xbe8bf3f1	-0.2733455
115	0x3e0ad0ea	0.13556257
116	0xbf4507dd	-0.76965123
117	0xbf920ed4	-1.1410775
118	0xbf189fe5	-0.5961898
119	0x3e0eb633	0.13936691
120	0xbe3c67a3	-0.1839891
121	0x3e1955ff	0.14974211
122	0x3e6ae9b8	0.22940719
123	0x3dd58d83	0.10427382
124	0xbe9dad01	-0.30796054
125	0x3e12b9dc	0.14328712
126	0xba84f280	-0.0010143071
127	0x3e1d0eca	0.15337673
128	0xbf20a0c9	-0.6274534
129	0x3d09d103	0.033646595
130	0xbf0eb5ad	-0.55745965
131	0x3d5f2762	0.054480918
132	0xbf100de1	-0.5627118
133	0x3e996d00	0.29965973
134	0x3e391aa9	0.18076576
135	0x3e88a4df	0.26688287
136	0x3ef26c99	0.47348478
137	0x3e4a70a0	0.19769526
138	0x3dbd5096	0.09243886
139	0xbf3ea0b5	-0.7446397
140	0x3dc72207	0.09723287
141	0x3e35a55f	0.17738865
142	0x3e405943	0.1878405
143	0x3df080cc	0.11743316
144	0xbd840d94	-0.06447902
145	0x3e5a66a2	0.21328214
146	0xbef8290a	-0.4846881
147	0x3e5a9098	0.2134422
148	0x3e12e5aa	0.14345422
149	0x3e8b1fa7	0.27172586
150	0x3f0ae7b2	0.5425979
151	0x3df677a4	0.120345384
152	0xbf64b0dd	-0.8933237
153	0x3df830d6	0.1211869
154	0x3e2e0439	0.16993798
155	0xbef4187a	-0.47674924
156	0x3d9fe6b0	0.07807672
157	0x3d935cd4	0.0719544
158	0x3ddfbc17	0.10924547
159	0xbda6903b	-0.081329785
160	0x3e328c65	0.17436369
161	0x3e896153	0.26832065
162	0x3d6dcbab	0.05805556
163	0xbdac1f42	-0.084043995
164	0xbf5ced73	-0.8629982
165	0x3f14c0a2	0.58106434
166	0x3c686bb5	0.014185836
167	0x3ea83347	0.32851622
168	0x3e251565	0.16121443
169	0x3de00c5f	0.109398596
170	0x3ea0b285	0.313862
171	0x3cda5976	0.026653986
172	0x3e8a9579	0.27067164
173	0xbb1b3780	-0.0023684204
174	0xbccf8f40	-0.025336862
175	0x3e84eef4	0.25963557
176	0x3e402318	0.18763387
177	0x3dae47af	0.08509766
178	0x3ef18390	0.47170687
179	0x3f11db32	0.5697509
180	0x3e4c615e	0.19959018
181	0x3e5c4202	0.21509555
182	0x3e4ebf48	0.20190156
183	0x3ed30dff	0.41221616
184	0x3dac886d	0.08424459
185	0x3d9628b2	0.07331981
186	0xbf399fb1	-0.72509295
187	0x3cdfcd61	0.027319612
188	0xbf1653a0	-0.5872135
189	0x3e95adda	0.292342
190	0x3e20315c	0.15643829
191	0x3eaff49b	0.34366307
192	0x3dffd3d1	0.12491573
193	0x3e6554e2	0.22395661
194	0x3e4e3132	0.20135954
195	0xbf5a04ac	-0.8516338
196	0x3e6354ce	0.22200319
197	0xbef097eb	-0.46990904
198	0xbee595b5	-0.4484078
199	0x3c8cc9ec	0.017186128
200	0x3eb5c4ab	0.35501608
201	0x3ed3e7b7	0.41387722
202	0x3e0157bb	0.12631123
203	0xbee4d082	-0.4469033
204	0x3e6cf0f1	0.23138787
205	0x3e007a75	0.12546714
206	0x3ed14a31	0.40876916
207	0xbf22ca92	-0.6359035
208	0x3e17cf70	0.14825225
209	0xbec3683a	-0.38165456
210	0x3e0a09b6	0.13480267
211	0x3e50ae36	0.20378956
212	0xbedc962e	-0.43083328
213	0x3eb71d2c	0.35764444
214	0x3ed76ee8	0.42076802
215	0x3e9c90ac	0.30579126
216	0x3de08a84	0.1096392
217	0x3e5a908e	0.21344206
218	0x3ead1991	0.33808568
219	0x3e9c1a38	0.30488753
220	0x3e0a116b	0.13483207
221	0xbe0be699	-0.13662185
222	0x3e2e6a43	0.17032723
223	0x3ea55a73	0.3229557
224	0x3e8b9f5d	0.27270022
225	0xbf379d57	-0.71724457
226	0x3e1348eb	0.14383285
227	0x3dfbe346	0.12299208
228	0x3e145d78	0.1448878
229	0x3e268fdb	0.16265814
230	0x3d8b4e87	0.06802087
231	0x3e1d81d2	0.15381554
232	0x3e39a89f	0.1813073
233	0xbc47e534	-0.012200642
234	0xbf443a1c	-0.7665117
235	0xbf1d4400	-0.61431885
236	0xbfb043ca	-1.3770688
237	0xbed44930	-0.41462088
238	0x3f219770	0.631217
239	0x3c2a9626	0.010411775
240	0x3eac6feb	0.33679137
241	0x3e1159d7	0.14194427
242	0x3e496964	0.1966911
243	0x3df490c3	0.119416736
244	0xbf9592ee	-1.1685464
245	0xbf5c8277	-0.86136574
246	0xbf6fec87	-0.9372029
247	0x3e1dbf00	0.15404892
248	0x3ef01004	0.4688722
249	0x3e8200ef	0.25391337
250	0x3e54828e	0.20752928
251	0x3e01c867	0.12674104
252	0xbf746667	-0.95468754
253	0x3e50fee6	0.20409736
254	0xbd4669cf	-0.04844075
255	0x3e0b99b8	0.13632858

fc2.bias f4 [64]
0	0x3e8d295d	0.2757062
1	0x3e35630c	0.17713565
2	0xbd9bb7f3	-0.07603445
3	0x3e19d405	0.15022285
4	0xbd843b84	-0.06456664
5	0xbd011f76	-0.031524144
6	0x3e843b07	0.25826284
7	0x3e94768e	0.289967
8	0x3e346967	0.17618333
9	0x3e86f0f4	0.26355708
10	0xbd4afa29	-0.049554978
11	0x3e928cf3	0.2862316
12	0xbdbcf5c2	-0.09226562
13	0xbc44dd35	-0.0120156305
14	0xbe4ae421	-0.19813587
15	0xbdc39eb7	-0.09551757
16	0x3e93a7df	0.28839013
17	0xbddd12f4	-0.10794631
18	0x3e51ca9e	0.20487449
19	0xbcc6eb7b	-0.024282208
20	0x3e2e5762	0.17025521
21	0x3e88be05	0.26707473
22	0xbcf4a76f	-0.029864995
23	0xbdaa0457	-0.08301609
24	0xbda53230	-0.08066213
25	0x3d576db0	0.05259484
26	0x3c81d088	0.015846506
27	0xbd828430	-0.06372869
28	0x3e75bc4e	0.23997614
29	0xbb983b50	-0.0046457425
30	0x3e0d3d06	0.1379281
31	0xbd9b7159	-0.07589979
32	0x3e55ec41	0.20890905
33	0xbda3d1ff	-0.07999038
34	0xbdc8df59	-0.09808225
35	0x3e6333c3	0.22187714
36	0xbd49140f	-0.049091395
37	0x3e796413	0.24354582
38	0x3dec488b	0.11537274
39	0x3e69df35	0.22839053
40	0x3d678d1a	0.05653105
41	0xbc8d6019	-0.017257737
42	0x3e651e95	0.22374947
43	0xbc07b7a1	-0.008283527
44	0x3e861286	0.26186007
45	0xbdde1190	-0.108431935
46	0x3d461696	0.048361383
47	0x3e405fb8	0.18786514
48	0x3b33e1b7	0.002744777
49	0x3e965486	0.2936136
50	0x3e9064ce	0.28201908
51	0x3e7ee0e7	0.24890481
52	0x3e96de52	0.29466492
53	0x3d49c303	0.049258243
54	0xbd6c82f2	-0.057742067
55	0x3e488d28	0.19585097
56	0x3e48c47b	0.19606201
57	0x3e591473	0.21199207
58	0x3cbed6cb	0.02329578
59	0x3cb1c594	0.021700658
60	0x3e4bfc0c	0.19920367
61	0x3e693c52	0.22776917
62	0x3e305b6d	0.17222376
63	0x3e0a5b08	0.13511288

fc3.weight f4 [2, 64]
0	0x3e85b6bb	0.26115975
1	0xbd583f84	-0.05279495
2	0xbdca2278	-0.09869856
3	0x3e3c2619	0.18373908
4	0xbda077b0	-0.078353286
5	0x3d92227a	0.07135482
6	0x3ea9b014	0.3314215
7	0x3ea34c41	0.31894115
8	0x3e7c2a08	0.24625409
9	0x3e708e14	0.23491699
10	0x3c8f0043	0.01745618
11	0x3e8a5751	0.27019742
12	0x3ea6c786	0.325741
13	0xbda90615	-0.08253113
14	0xbf3c4713	-0.7354595
15	0x3c624bce	0.013812019
16	0x3e830745	0.25591484
17	0xbd833276	-0.06406109
18	0x3e9f901f	0.31164643
19	0x3a803591	0.0009781589
20	0x3e91ff3d	0.28515044
21	0x3ea949a2	0.3306399
22	0xbc80fe41	-0.015746238
23	0xbdc10b21	-0.09425951
24	0x3da9adde	0.08285116
25	0xbd43c251	-0.047792736
26	0xbd329380	-0.0435977
27	0x3b656479	0.0035002513
28	0x3e8702a5	0.26369205
29	0xbd10fe3c	-0.035398707
30	0x3e1380fe	0.14404675
31	0xbda3cad8	-0.07997674
32	0x3eada147	0.33912107
33	0xbd935787	-0.07194429
34	0xbc095e27	-0.008384264
35	0x3eaf5144	0.34241688
36	0xbca1fa4e	-0.019772675
37	0x3eb77565	0.35831752
38	0x3cbbb292	0.022912297
39	0x3eb07259	0.3446224
40	0xbdc0be3b	-0.094112836
41	0xbca65a5b	-0.020306757
42	0x3e608bc0	0.2192831
43	0xbd9f30cd	-0.0777298
44	0x3e9e0eb9	0.30870607
45	0xbd3ca2cb	-0.04605369
46	0x3dfbcb10	0.122945905
47	0x3eb9c90e	0.36286205
48	0xbda243f5	-0.07923118
49	0x3ea195d9	0.31559637
50	0x3e97989a	0.29608613
51	0x3db33591	0.08750451
52	0x3e6dc4ea	0.23219648
53	0x3ccc12a6	0.024911236
54	0x3d1e4824	0.038643017
55	0x3e3b043e	0.18263337
56	0x3e5c6129	0.21521439
57	0x3ea6d651	0.32585385
58	0xbd0e2460	-0.03470266
59	0x3dcf7234	0.101292044
60	0x3ea7d241	0.32777599
61	0x3dde653b	0.10859152
62	0x3e4f3117	0.2023357
63	0x3c275f4e	0.0102155935
64	0x3e8e6ea7	0.27818796
65	0x3ed9452e	0.42435592
66	0x3dadd5ae	0.08488022
67	0x3e98a59d	0.29813853
68	0xbce2f0f2	-0.027702782
69	0xbdfdca9a	-0.12392159
70	0x3e5be5d9	0.21474399
71	0x3e3b743a	0.18306056
72	0x3e56a5ed	0.20961733
73	0x3e4061db	0.18787329
74	0xbdb1b0a8	-0.08676273
75	0x3e8c011e	0.27344602
76	0xbee7a054	-0.45239508
77	0x3d2f81b8	0.04284832
78	0x3d442f8d	0.04789691
79	0xbd4c7fc3	-0.04992653
80	0x3e9ff9aa	0.31245166
81	0xbdbeb852	-0.093125
82	0x3e89062d	0.26762524
83	0xbc93c920	-0.01804024
84	0x3e90035c	0.28127563
85	0x3ea24b3c	0.31698024
86	0xbd797930	-0.06090659
87	0x3cd65bbf	0.026166795
88	0xbd776af2	-0.060404725
89	0xbd7154b7	-0.05891868
90	0xbd92e0f1	-0.071718104
91	0xbdc35bb0	-0.095389724
92	0x3e830c88	0.25595498
93	0x3df4b61e	0.119487986
94	0x3ea1b1ed	0.3158106
95	0xbd4d7ae5	-0.05016603
96	0x3e3906e5	0.18069036
97	0xbd3c1f28	-0.04592815
98	0xbdafd024	-0.085846215
99	0x3e2f7175	0.17133124
100	0x3c3311ee	0.010929568
101	0x3dfa458d	0.12220297
102	0x3ec1e383	0.3786889
103	0x3e1902f3	0.14942531
104	0x3d09fdc0	0.03368926
105	0x3d043b47	0.032283094
106	0x3e79d6e5	0.24398382
107	0x3d3f6b24	0.046733037
108	0x3e2e5385	0.17024048
109	0x3a621b40	0.00086252764
110	0xbdb01a50	-0.08598769
111	0x3e4cffe6	0.20019493
112	0x3defd364	0.117102414
113	0x3e4f0b71	0.20219208
114	0x3e838f95	0.25695482
115	0x3e9c3559	0.3050945
116	0x3e8a0387	0.26955816
117	0xbd8dcfff	-0.06924438
118	0x3db678b8	0.08909744
119	0x3e8ddcb4	0.27707446
120	0x3e66d1f4	0.22541028
121	0x3d89e9a1	0.06734014
122	0x3d0d9789	0.034568343
123	0xbdeb4c0c	-0.11489114
124	0x3e745df8	0.23863971
125	0x3e9d8c3c	0.30771053
126	0x3e91b976	0.28461808
127	0x3ec4c531	0.38431695

fc3.bias f4 [2]
0	0x3e57518c	0.21027201
1	0x3e03402d	0.1281745
