CartPole-DQN/dqn_model.pth (torch, 38684 bytes, 6 tensors)

fc1.weight f4 [128, 4]
0	0x3fd6bfad	1.6777245
1	0x3ed7d072	0.4215122
2	0x4028c164	2.6368036
3	0x3ec555c0	0.38541985
4	0x3eb18eb0	0.34679174
5	0xbe7cd1b1	-0.24689366
6	0x3ed193e4	0.40933144
7	0xbe8f9981	-0.28046802
8	0x3fd3eea0	1.6557198
9	0x3f0f71c5	0.56032974
10	0x3fd504a4	1.6642041
11	0x3ed1dfc1	0.40991023
12	0xbd074884	-0.03302814
13	0x3ccabd75	0.024748543
14	0xbe823888	-0.25433755
15	0x3d206203	0.03915597
16	0x3f234288	0.63773394
17	0xbe5c55c1	-0.21517088
18	0xbf7557d3	-0.95837134
19	0xbe95a1c4	-0.2922498
20	0xbe6cd0c2	-0.2312651
21	0x3c89833c	0.01678621
22	0x3ebcbfc8	0.36865067
23	0x3e18e528	0.14931166
24	0xbce0a6bb	-0.027423253
25	0xbeb176d1	-0.34660962
26	0xbf2887cc	-0.6583221
27	0x3b717e06	0.0036848797
28	0xbed3fe72	-0.41405064
29	0xbd00076a	-0.03125707
30	0xbe087c24	-0.13328606
31	0x3e58529f	0.21125267
32	0xbf8ea4af	-1.1144007
33	0xbef38a25	-0.47566333
34	0xbe8a728e	-0.27040523
35	0xbeb7b19b	-0.3587769
36	0xbea2140f	-0.31655928
37	0x3e35d810	0.17758203
38	0x3e65fe36	0.22460255
39	0x3d82ae32	0.06380881
40	0xbe295ca1	-0.16539241
41	0xbd86515b	-0.06558486
42	0xbf23f64c	-0.64047694
43	0xbedf20a9	-0.43579605
44	0x3fca8d55	1.5824381
45	0x3f3919e0	0.7230511
46	0x40267af0	2.6012535
47	0x3f12f118	0.5739913
48	0x3f54fde8	0.8319993
49	0xbd80af87	-0.06283479
50	0xbf06dce1	-0.52680784
51	0xbe15ff6c	-0.14648217
52	0xbc9067bd	-0.017627591
53	0x3d8b3f25	0.06799153
54	0xbe8acbc4	-0.27108586
55	0x3e8032eb	0.25038847
56	0xbe51e0e0	-0.20495939
57	0x3f042e5b	0.5163323
58	0x3ffefddb	1.992122
59	0x3f1736f5	0.5906823
60	0xbe6f7428	-0.23384154
61	0xbdd9758b	-0.10618123
62	0x3ebd454d	0.36966935
63	0xbe6eb70c	-0.23312014
64	0x3e85b728	0.261163
65	0xb8bfc350	-9.1439695e-05
66	0x3da304da	0.0795991
67	0xbcf48f18	-0.029853389
68	0xbdb8dd79	-0.090266176
69	0xbd6aa1e4	-0.057283297
70	0x3e91b7a6	0.28460425
71	0x3d19e666	0.03757324
72	0xbff1567b	-1.8854517
73	0xbeeba238	-0.460222
74	0xbf103864	-0.56336045
75	0xbe4c1127	-0.19928418
76	0x3f3e5ff0	0.7436514
77	0x3dcfdb7e	0.10149287
78	0xbf3a0c64	-0.72675157
79	0x3d8f044f	0.06983244
80	0xbe9c553f	-0.30533788
81	0x3d123bb6	0.035701476
82	0x3eb82257	0.359637
83	0xbe155fb9	-0.14587297
84	0xbf31ac89	-0.6940389
85	0x3e9b1d30	0.30295706
86	0x3f97815b	1.1836351
87	0x3e271b0a	0.16318908
88	0xbe989b40	-0.29805946
89	0x3da564a3	0.080758356
90	0x3f29b518	0.6629195
91	0xbca01330	-0.0195404
92	0xbecb47a7	-0.39703104
93	0x3e425899	0.1897911
94	0xbe0922d8	-0.13392198
95	0x3e2b23bc	0.1671285
96	0x3f3db497	0.74103683
97	0x3d47090f	0.048592623
98	0xbf10026a	-0.56253684
99	0xbcd63df4	-0.026152588
100	0xbefd076b	-0.49419722
101	0xbe40a7db	-0.18814032
102	0xbf02f598	-0.51155996
103	0x3d3df881	0.04637957
104	0x3ea87c51	0.32907346
105	0xbebb08fc	-0.36530292
106	0xbf0de879	-0.5543285
107	0xbed6bce0	-0.41940975
108	0x3f0d2653	0.55136603
109	0xbdcdbbc3	-0.10045578
110	0xc06ee636	-3.732801
111	0xbf5acc1b	-0.8546769
112	0xbe9b6422	-0.30349833
113	0xbdd51ce7	-0.10405903
114	0xbd41f41c	-0.04735194
115	0xbe70b849	-0.23507799
116	0x3e748e8e	0.23882505
117	0x3e341c15	0.17588837
118	0xbea809e8	-0.32820058
119	0x3de5cd52	0.11220802
120	0xbee5ec86	-0.44907016
121	0x3e61c411	0.2204745
122	0x3ea2968e	0.3175549
123	0xbd7c99a8	-0.061669976
124	0x3f24ee0b	0.64425725
125	0xbdea0203	-0.11426165
126	0xbf2e2897	-0.68030685
127	0xbe420e88	-0.18950856
128	0x3e67e7ee	0.22647068
129	0xbdaa1702	-0.0830517
130	0xbe7bf63d	-0.24605651
131	0x3e47227b	0.19446747
132	0xbec04713	-0.37554225
133	0x3c85125f	0.016244112
134	0xbf01b7a1	-0.5067082
135	0x3e8eb022	0.27868754
136	0x3c88f312	0.016717467
137	0x3d9083d6	0.07056396
138	0xbd2eb915	-0.042656977
139	0xbe173e4b	-0.14769857
140	0x3f3f7cc9	0.7479978
141	0xbd61cb58	-0.055125564
142	0x3f08fa2c	0.5350673
143	0x3e39cf8a	0.18145576
144	0x3f4822b3	0.78177947
145	0xbebbf54b	-0.3671058
146	0xbf73467f	-0.95029444
147	0xbeb48112	-0.35254723
148	0xbf14c50b	-0.58113164
149	0x3edf402c	0.43603647
150	0x3f545e52	0.8295642
151	0x3ef12e0b	0.4710544
152	0xbd567be1	-0.052364234
153	0x3dee83e6	0.116462514
154	0xbe309422	-0.17244008
155	0xbd304713	-0.04303653
156	0xbe3514f8	-0.1768378
157	0xbe3041d6	-0.17212614
158	0x3f118776	0.5684732
159	0xbe4c4082	-0.19946483
160	0xbf089936	-0.5335878
161	0xbe4e86b6	-0.20168576
162	0xbedc4797	-0.4302337
163	0x3d6ee015	0.05831917
164	0xbd97e5be	-0.07416867
165	0x3e9fb642	0.3119374
166	0xbd5cc142	-0.053895243
167	0x3e00fe00	0.12596893
168	0x3d2a3942	0.04155851
169	0xbea0bbd6	-0.31393307
170	0x3f2c289d	0.6724947
171	0xbe9cac0b	-0.30600008
172	0xbd1988f2	-0.037484117
173	0xbe6aae73	-0.2291811
174	0x3e645984	0.22299773
175	0xbe768f4c	-0.24078101
176	0xbea255b2	-0.31706005
177	0x3df9ef43	0.12203839
178	0x3ed341f1	0.41261247
179	0x3d90acbd	0.07064197
180	0xbe9d259e	-0.30692762
181	0x3e948f84	0.29015744
182	0xbdaa3cd1	-0.08312381
183	0x3e812646	0.25224513
184	0x3ebb02a6	0.36525458
185	0xbe6357d7	-0.22201477
186	0xbe8a39b5	-0.26997152
187	0xbdf9467f	-0.12171649
188	0x3be31cb4	0.006930912
189	0x3ee4a0aa	0.44653827
190	0x3fa656fe	1.2995298
191	0x3ecafcef	0.39646098
192	0xbd82a5fe	-0.06379317
193	0x3b25ce5e	0.0025300006
194	0xbdcd2390	-0.10016549
195	0xbe4a0eb1	-0.19732167
196	0xbe12090f	-0.14261268
197	0xbdbabfe2	-0.0911863
198	0x3e8f5e90	0.28001833
199	0xbe480ac7	-0.19535361
200	0xbf4e2e4c	-0.80539393
201	0x3df86507	0.121286444
202	0x3f4cf1b6	0.8005632
203	0x3e5adcab	0.2137324
204	0x3f31d140	0.69459915
205	0x3f291055	0.66040546
206	0x3f8d3d14	1.1034265
207	0x3f02921c	0.51004195
208	0xbeb59087	-0.35461828
209	0xbdc950d3	-0.09829869
210	0x3e99c164	0.30030358
211	0xbd9fe29e	-0.07806896
212	0xbd225a4d	-0.0396369
213	0xbd027ef2	-0.031859346
214	0xbe46b0fe	-0.19403455
215	0x3dcdc347	0.10047012
216	0x3dfdd73b	0.123945676
217	0xbdf44921	-0.11928011
218	0xbe5a59e4	-0.21323353
219	0x3c447a15	0.011991997
220	0x3e1ba89e	0.15201041
221	0x3e8cc835	0.27496496
222	0x4036ba01	2.8551028
223	0x3efd9dd1	0.49534467
224	0x3d2c03ec	0.041995928
225	0x3e2a686e	0.166414
226	0xbf26e613	-0.65194815
227	0x3ea396eb	0.3195108
228	0x40150f3c	2.3290548
229	0x3f03d040	0.5148964
230	0x3f2c21da	0.67239153
231	0x3e5da72b	0.21645801
232	0x3f12cc89	0.57343346
233	0xbde37c25	-0.11107663
234	0xbfc5a36a	-1.5440495
235	0xbeb60daf	-0.35557315
236	0xbe648bdd	-0.22318979
237	0x3e09eba0	0.1346879
238	0xbed13429	-0.40860108
239	0xbd55c0ff	-0.05218601
240	0x3ecbaa2a	0.39778262
241	0x3d425505	0.047444362
242	0xbfd53bbf	-1.6658858
243	0xbe752d3d	-0.23943038
244	0xbefe4b8d	-0.49667016
245	0xbe79d4c2	-0.24397567
246	0xbe86e654	-0.263476
247	0xbd4a7ac3	-0.04943348
248	0xbd806db5	-0.06270925
249	0xbeaabcf7	-0.33347294
250	0x3edaecef	0.4275889
251	0xbe87c5fd	-0.2651824
252	0xbf1c2101	-0.6098786
253	0x3dec7273	0.11545267
254	0x3e3bf401	0.18354799
255	0x3d88c0e8	0.06677419

fc1.bias f4 [128]
0	0xbeadb844	-0.33929646
1	0xbe5e6eda	-0.21721974
2	0xbe93d3ba	-0.28872472
3	0xbef51346	-0.47866267
4	0xbf66aa37	-0.9010348
5	0x3f45dd0a	0.77290404
6	0x3f3a98bd	0.7288931
7	0x3f5060d7	0.81397766
8	0xbedb5002	-0.4283448
9	0x3e6e14ec	0.23250169
10	0xbf2434bd	-0.6414297
11	0xbe146803	-0.14492802
12	0x3ead9a65	0.33906856
13	0x3f28673c	0.65782523
14	0x3e615146	0.2200366
15	0x3f423a74	0.7587044
16	0xbf1e0cc3	-0.6173822
17	0x3f447d76	0.7675394
18	0xbd62eb8e	-0.055400424
19	0x3ed07176	0.40711564
20	0x3f3e62a9	0.74369293
21	0x3e8a0474	0.26956522
22	0xbf2de076	-0.67920625
23	0x3ea25fad	0.3171362
24	0x3eabc247	0.3354666
25	0x3f29217c	0.6606672
26	0x3d958f37	0.07302707
27	0xbf5ddf05	-0.86668426
28	0x3f2e575e	0.6810206
29	0x3e83baf2	0.25728565
30	0x3f057fe4	0.5214827
31	0xbf1912cf	-0.59794325
32	0x3f483086	0.7819904
33	0x3f2ee8b4	0.68323827
34	0x3eff227d	0.49831
35	0xbf31cae3	-0.69450206
36	0xbf1712c0	-0.59012985
37	0x3eb40cb1	0.35165933
38	0x3ea484e9	0.32132652
39	0x3ec4d61a	0.38444597
40	0x3f2d58e0	0.6771374
41	0x3f345e8c	0.7045677
42	0x3ecc9ce9	0.39963463
43	0x3ef24d0f	0.47324416
44	0x3edf31c6	0.43592662
45	0xbf25b391	-0.6472712
46	0xbedde69c	-0.43340003
47	0x3e7a1b29	0.24424423
48	0x3f51aa0a	0.81900084
49	0x3f0fdfcb	0.56200856
50	0xbf7e38fb	-0.99305695
51	0xbebb1fcc	-0.36547697
52	0x3ed858e7	0.42255327
53	0x3ead9068	0.33899236
54	0x3ebe5f70	0.37182188
55	0xbf2877d2	-0.6580783
56	0x3ed65bd6	0.4186694
57	0x3d8829eb	0.0664862
58	0xbf6aff6c	-0.9179599
59	0x3f2cb9e8	0.6747117
60	0xbf6457bf	-0.8919639
61	0x3f30c20b	0.69046086
62	0x3f096c26	0.53680646
63	0x3eaeb5b3	0.34123
64	0x3ea3e198	0.32008052
65	0x3f332eba	0.69993174
66	0xbf29c8da	-0.663221
67	0xbf2f60ea	-0.68507254
68	0x3f495188	0.7864003
69	0xbf1b5571	-0.6067725
70	0xbf77e83a	-0.96838725
71	0xbee5e222	-0.44899088
72	0x3ebf94d9	0.3741825
73	0xbf1a1617	-0.60189956
74	0x3ebbbccb	0.36667475
75	0xbf5bd73e	-0.8587531
76	0x3f19018b	0.5976798
77	0x3f4b6727	0.79454273
78	0xbf373f2b	-0.7158076
79	0xbecfaf6a	-0.40563518
80	0xbf357d8e	-0.70894706
81	0xbee24793	-0.44195232
82	0x3cabf53f	0.020990966
83	0x3f2decc2	0.6793939
84	0xbf80b429	-1.005498
85	0xbefc9ab7	-0.49336788
86	0xbf21ccdc	-0.63203216
87	0x3f4167c0	0.75548935
88	0x3deaa4b4	0.11457196
89	0x3ec97bb3	0.39352188
90	0xbf06ee74	-0.527076
91	0x3f4eafb7	0.8073687
92	0x3ee305ea	0.4434045
93	0xbf6bf341	-0.9216805
94	0x3eba1473	0.36343727
95	0x3e9178ee	0.28412575
96	0x3ecbc0b5	0.3979546
97	0xbf38f2a4	-0.7224524
98	0x3f4708b6	0.77747667
99	0x3f23a5cf	0.6392488
100	0x3ef68f28	0.48156095
101	0x3e9be177	0.30445454
102	0x3ebc8beb	0.368255
103	0x3f172d96	0.59053934
104	0x3f4e936d	0.80693704
105	0xbebf1211	-0.3731847
106	0x3e83cdb7	0.25742885
107	0xbec06ac0	-0.37581444
108	0xbec899e9	-0.39179924
109	0xbf2daeff	-0.6784515
110	0xbf2117b5	-0.629268
111	0x3e90b5c8	0.28263688
112	0xbf69b6e1	-0.91294676
113	0x3f40d3d6	0.75323236
114	0xbefe0470	-0.4961276
115	0xbd48815a	-0.048951484
116	0xbf99ab45	-1.2005392
117	0xbf6cc9e6	-0.9249557
118	0xbf30b537	-0.6902651
119	0x3f2f81ca	0.6855742
120	0xbe093e00	-0.13402557
121	0x3ebc83e4	0.36819375
122	0x3eda0534	0.42582095
123	0x3eef6ebd	0.46764174
124	0xbf35b69d	-0.7098177
125	0x3e9d28d4	0.30695212
126	0xbef553c4	-0.4791547
127	0x3f565658	0.837255

fc2.weight f4 [64, 128]
0	0xbed15040	-0.40881538
1	0x39b20cf8	0.00033960468
2	0xbf3f8515	-0.7481244
3	0x3ca27397	0.019830508
4	0xbee66cf9	-0.45005015
5	0x3e83a7d4	0.2571398
6	0x3eb62bdf	0.35580346
7	0x3e20fa55	0.15720494
8	0xbe12b560	-0.14327002
9	0x3d725309	0.05916122
10	0xbe689a21	-0.22715046
11	0xbe97caca	-0.29646903
12	0x3e8ba76c	0.2727617
13	0x3e66eb7d	0.22550769
14	0xbe5bf2ad	-0.21479292
15	0x3e5caa89	0.21549429
16	0xbd52a2d1	-0.051424805
17	0x3ea442af	0.32082126
18	0xbf0f6de7	-0.5602707
19	0x3e37faf0	0.17966819
20	0x3ea3cdfe	0.31993097
21	0x3e03618f	0.12830184
22	0xbefac234	-0.4897629
23	0x3dfdd5ec	0.12394318
24	0xbe07f330	-0.13276362
25	0x3e77513f	0.24152087
26	0xbdbb05c9	-0.09131963
27	0xbf365ced	-0.71235543
28	0x3e985961	0.2975569
29	0xbd8c9b4e	-0.068655595
30	0x3daaf3c7	0.08347278
31	0xbe58cb29	-0.2117125
32	0x3e44e45a	0.19227734
33	0x3e059957	0.13046776
34	0x3da2f45f	0.07956766
35	0xbe4e7013	-0.2015994
36	0xbe7c6a96	-0.24650034
37	0xbf463387	-0.77422374
38	0x3c1ea2c4	0.009682361
39	0x3e70c5be	0.23512933
40	0x3eb76447	0.35818693
41	0x3e76f45c	0.24116653
42	0x3e957ff6	0.2919919
43	0x3e2cb165	0.16864546
44	0x3e5cb39f	0.21552895
45	0x3d493fd0	0.049133122
46	0x3d3a933c	0.04555057
47	0xbe96c29f	-0.2944536
48	0x3e82e868	0.25567937
49	0x3e61be0b	0.22045152
50	0xbf13794e	-0.5760697
51	0xbf2cb438	-0.6746249
52	0x3e5fd99c	0.21860355
53	0x3c66c7d4	0.014085729
54	0x3e031f4e	0.1280491
55	0xc041a19a	-3.0254884
56	0x3e20a4f2	0.15687922
57	0x3ef8884a	0.4854148
58	0xbedfcddf	-0.43711755
59	0x3e164066	0.14673004
60	0xbe8c14b4	-0.27359545
61	0x3e6808ba	0.22659579
62	0x3e9ef01f	0.31042573
63	0x3e112e4c	0.14177817
64	0x3e667891	0.2250693
65	0x3ebba363	0.36648092
66	0xbf13242b	-0.5747706
67	0xbf04ee55	-0.51926166
68	0x3e4c7c27	0.19969235
69	0xbe67445c	-0.22584671
70	0xbf62c84c	-0.8858688
71	0x3cce6914	0.02519659
72	0x3e5556a3	0.2083383
73	0xbd862c07	-0.06551366
74	0x3e785085	0.24249466
75	0xbef55187	-0.47913763
76	0x3e898cfa	0.2686537
77	0x3e4991e9	0.19684567
78	0xbf4c44f3	-0.7979271
79	0xbf143ae2	-0.5790235
80	0xbdcbbfd5	-0.099486984
81	0xbfea6416	-1.8311794
82	0xbe57749a	-0.21040574
83	0x3e30bb2c	0.172589
84	0xbf1f522c	-0.6223476
85	0xbe326d0d	-0.17424412
86	0xbe924f86	-0.28576297
87	0x3e3809c3	0.17972474
88	0xbd92ee8a	-0.07174404
89	0x3cb6c1d2	0.022309218
90	0xbe6e16f4	-0.23250943
91	0x3ea6ba5c	0.32564056
92	0x3e2a7d22	0.16649297
93	0xbf5d9ee2	-0.8657056
94	0x3e2d7d0d	0.16942234
95	0x3e9242b5	0.28566518
96	0x3e4e770f	0.20162605
97	0xbf49c0fe	-0.7881011
98	0x3e344ddf	0.1760783
99	0x3e2b9b65	0.16758497
100	0x3e63f36d	0.22260828
101	0x3c8dfc7c	0.017332308
102	0x3d96571e	0.07340835
103	0x3e6db456	0.23213324
104	0x3eacdf9b	0.33764347
105	0xbf4bc31d	-0.79594594
106	0xbf7a3df2	-0.9775077
107	0xbf4f3c7f	-0.80951685
108	0xbff4b045	-1.9116293
109	0xbf8fd2d3	-1.1236213
110	0xbe8b476c	-0.27202928
111	0x3e48c864	0.19607693
112	0xbe1d044f	-0.15333675
113	0x3e212f49	0.15740694
114	0xbebd6054	-0.36987555
115	0xbdc30fe7	-0.095245175
116	0xbf955450	-1.1666355
117	0xc0491f12	-3.1425214
118	0xbf3d42cd	-0.73930055
119	0x3e15ad1f	0.14616822
120	0xbe51739d	-0.20454259
121	0x3e250846	0.16116437
122	0x3e2d4a0e	0.16922781
123	0x3d472220	0.04861653
124	0xbfa8aa14	-1.3176904
125	0x3dd33f34	0.103147894
126	0xba84f280	-0.0010143071
127	0x3e45bdf6	0.19310746
128	0x3ea5ecbb	0.32407174
129	0x3dd103be	0.10205792
130	0xbe9455f8	-0.2897184
131	0x3e052fa4	0.13006455
132	0xbf102382	-0.5630418
133	0x3ea8e552	0.32987458
134	0x3e6c3e6b	0.23070686
135	0x3e8f88e6	0.28034133
136	0x3ef60df0	0.48057508
137	0x3d59a04f	0.053131398
138	0xbf32191c	-0.69569564
139	0x3eaca918	0.33722758
140	0x3ecadbec	0.39620912
141	0x3e6a2f35	0.2286957
142	0xbf4bbcb5	-0.7958482
143	0x3e2594d4	0.16170055
144	0xbd840d94	-0.06447902
145	0x3e891a5b	0.2677792
146	0xbeffab95	-0.49935594
147	0x3ecc0e8d	0.3985485
148	0x3e36621d	0.17810865
149	0x3d415112	0.047196455
150	0x3e334b44	0.1750918
151	0x3c9c45be	0.019076224
152	0xbed17758	-0.40911365
153	0x3de29887	0.110642485
154	0x3ecabc69	0.3959687
155	0xc070888c	-3.7583342
156	0x3ddb8310	0.107183576
157	0x3e28a61f	0.1646962
158	0x3dd07482	0.10178472
159	0xbed5a40c	-0.4172672
160	0x3e8b416b	0.27198347
161	0x3e8a5b44	0.27022755
162	0x3e4a978d	0.19784375
163	0xbee388e9	-0.44440392
164	0xbf484cdd	-0.78242284
165	0x3e084c85	0.1331044
166	0x3d8917da	0.066940024
167	0x3e939c89	0.28830364
168	0x3e15f386	0.14643678
169	0x3e3cc83d	0.1843576
170	0x3ea57f6d	0.3232378
171	0x3d813d24	0.0631049
172	0x3e6747f7	0.22586046
173	0xbb1df289	-0.002410086
174	0x3c273ab8	0.010206871
175	0x3de70a96	0.11281316
176	0x3e8cc71d	0.2749566
177	0x3df2f64c	0.11863384
178	0xbeed484d	-0.46344224
179	0x3d4fd012	0.05073554
180	0x3e0ddd2f	0.13853906
181	0x3e3191b0	0.17340732
182	0x3e7cb86a	0.24679723
183	0xbf2a480a	-0.6651617
184	0x3e113a4d	0.14182396
185	0x3f2b7aa0	0.66983986
186	0xbf359d5d	-0.7094324
187	0x3da0a156	0.078432724
188	0xbf0fac93	-0.561227
189	0x3e91aa9b	0.28450474
190	0x3e3bf0d0	0.18353581
191	0x3e529d2a	0.20567766
192	0x3e22510b	0.15851228
193	0x3e6615d8	0.2246927
194	0x400ed893	2.2319686
195	0xbf834123	-1.0254253
196	0x3e5b2c9c	0.21403736
197	0xbed241e0	-0.41065884
198	0xbf38318a	-0.7195059
199	0x3c8cc9ec	0.017186128
200	0x3e80f932	0.2519012
201	0x3ed7147c	0.42007816
202	0x3e50a4f3	0.20375423
203	0xbee4d082	-0.4469033
204	0x3e4c8e37	0.19976126
205	0x3e5c3d24	0.21507698
206	0xbc369e2c	-0.01114611
207	0xbf4215ac	-0.7581432
208	0xbd435db0	-0.04769677
209	0xbfbdc09d	-1.4824406
210	0xbea10a36	-0.31453103
211	0x3e92e038	0.2868669
212	0xbeb4c90b	-0.35309634
213	0x401021e4	2.2520685
214	0x3ec1d778	0.37859702
215	0x3e9ea839	0.3098772
216	0x3e650388	0.22364628
217	0x3e8b2a3a	0.27180654
218	0xbe531937	-0.20615087
219	0x3e941a5e	0.28926367
220	0x3e2796bc	0.16366094
221	0xbf3852d4	-0.72001386
222	0x3d811336	0.06302492
223	0x3e7c8627	0.2466055
224	0x3e31d0a7	0.17364751
225	0xbfe4aaef	-1.7864665
226	0x3e30f299	0.17280044
227	0x3e425ea2	0.18981412
228	0x3dfdf6fc	0.12400624
229	0x3e243c50	0.16038632
230	0x3e9ceb69	0.30648354
231	0x3e1a7543	0.15083794
232	0x3e725ff8	0.23669422
233	0xbb4023bc	-0.0029318174
234	0xbfbe7cea	-1.4881871
235	0xbf8e4c20	-1.1116982
236	0xbfd16013	-1.6357445
237	0xbe07046b	-0.13185279
238	0x3e5fbbdd	0.21849008
239	0x3d6ed241	0.058305983
240	0x3ecd84b8	0.4014032
241	0x3e8eb245	0.27870384
242	0xbe2f3c16	-0.17112765
243	0xbe7b5240	-0.24543095
244	0xbfc06ae4	-1.503262
245	0xc06c5bfe	-3.6931148
246	0xc0300f25	-2.7509243
247	0x3e4a0b3a	0.19730845
248	0x3e28d80c	0.16488665
249	0x3e443e7a	0.19164458
250	0x3e515fbb	0.20446675
251	0x3e47475a	0.19460812
252	0xc01ffbc4	-2.4997416
253	0x3ea213df	0.31655785
254	0xbd4669cf	-0.04844075
255	0x3e593b85	0.21214111

fc2.bias f4 [64]
0	0x3eab48f2	0.3345409
1	0x3e9cf3f5	0.30654874
2	0xbd9bb7f3	-0.07603445
3	0x3e9de229	0.3083661
4	0xbd843b84	-0.06456664
5	0xbd011f76	-0.031524144
6	0x3ea1570c	0.31511724
7	0x3ee87bbe	0.45406908
8	0x3e9568da	0.29181558
9	0x3ea0ce03	0.31407174
10	0xbd4afa29	-0.049554978
11	0x3e8c7128	0.2743008
12	0xbe8c81fc	-0.2744292
13	0xbc44dd35	-0.0120156305
14	0xbea9eb60	-0.3318739
15	0xbdc39eb7	-0.09551757
16	0x3eb75936	0.3581025
17	0xbddd12f4	-0.10794631
18	0x3eb6cd92	0.35703713
19	0xbcc6eb7b	-0.024282208
20	0x3e775e31	0.24157025
21	0x3ee7ff70	0.4531207
22	0xbcf4a76f	-0.029864995
23	0xbdaa0457	-0.08301609
24	0xbda53230	-0.08066213
25	0x3d576db0	0.05259484
26	0x3c81d088	0.015846506
27	0xbd828430	-0.06372869
28	0x3eb925d9	0.36161688
29	0xbdab8f34	-0.08376923
30	0x3e55e464	0.20887905
31	0xbd9b7159	-0.07589979
32	0x3e95be93	0.2924696
33	0xbda3d1ff	-0.07999038
34	0xbdc8df59	-0.09808225
35	0x3eca6b4b	0.39534983
36	0xbd49140f	-0.049091395
37	0x3ed834cd	0.42227784
38	0x3e2ccc6e	0.16874859
39	0x3e8ee8eb	0.27912077
40	0x3d678d1a	0.05653105
41	0xbc8d6019	-0.017257737
42	0x3e971b91	0.2951322
43	0xbc07b7a1	-0.008283527
44	0x3ea47f2f	0.32128283
45	0xbe14dd41	-0.14537527
46	0xbcf3bb95	-0.029752532
47	0x3e747504	0.23872763
48	0x3b33e1b7	0.002744777
49	0x3eecef28	0.46276212
50	0x3eafe366	0.3435318
51	0x3ecf204a	0.40454322
52	0x3e70ffc0	0.23535061
53	0x3d49c303	0.049258243
54	0xbd6c82f2	-0.057742067
55	0x3e85167b	0.25993714
56	0x3e1b61f1	0.1517408
57	0x3ecb6849	0.39728
58	0x3cbed6cb	0.02329578
59	0x3cb1c594	0.021700658
60	0x3ebc427a	0.36769468
61	0x3eb7a740	0.3586979
62	0x3e799eb0	0.2437694
63	0x3e871047	0.26379606

fc3.weight f4 [2, 64]
0	0x3e9eb5d0	0.30998087
1	0x3ccd3430	0.025049299
2	0xbdca2278	-0.09869856
3	0x3ea2e711	0.31816915
4	0xbda077b0	-0.078353286
5	0x3d92227a	0.07135482
6	0x3edb444b	0.4282554
7	0x3eeb4fcf	0.45959327
8	0x3eb4663f	0.35234258
9	0x3ea6edde	0.32603353
10	0x3c8f0043	0.01745618
11	0x3e7a17e6	0.24423179
12	0x3edf90be	0.43665117
13	0xbda90615	-0.08253113
14	0xbe97e56b	-0.2966722
15	0x3c624bce	0.013812019
16	0x3eadd4b7	0.3395135
17	0xbd833276	-0.06406109
18	0x3ee7e717	0.45293495
19	0x3a803591	0.0009781589
20	0x3ec0513d	0.3756198
21	0x3ef0271d	0.4690484
22	0xbc80fe41	-0.015746238
23	0xbdc10b21	-0.09425951
24	0x3da9adde	0.08285116
25	0xbd43c251	-0.047792736
26	0xbd329380	-0.0435977
27	0x3b656479	0.0035002513
28	0x3ec555d8	0.38542056
29	0xbd10fe3c	-0.035398707
30	0x3e5f45f8	0.21804035
31	0xbda3cad8	-0.07997674
32	0x3ee5bb94	0.44869673
33	0xbd935787	-0.07194429
34	0xbc095e27	-0.008384264
35	0x3ef56a3b	0.4793261
36	0xbca1fa4e	-0.019772675
37	0x3f03ad15	0.5143598
38	0xbd3c2799	-0.0459362
39	0x3ee4484c	0.44586408
40	0xbdc0be3b	-0.094112836
41	0xbca65a5b	-0.020306757
42	0x3ea233d4	0.31680167
43	0xbd9f30cd	-0.0777298
44	0x3ece7dad	0.40330258
45	0xbd3ca2cb	-0.04605369
46	0x3dfbcb10	0.122945905
47	0x3eed7a64	0.4638244
48	0xbda243f5	-0.07923118
49	0x3eeb4711	0.45952657
50	0x3ec9dcc1	0.39426234
51	0x3e5f3228	0.21796477
52	0x3e360f25	0.17779215
53	0x3ccc12a6	0.024911236
54	0x3d1e4824	0.038643017
55	0x3e6d4cb6	0.23173794
56	0xbdb4d02b	-0.088287674
57	0x3ef3e53c	0.4763583
58	0xbd0e2460	-0.03470266
59	0x3dcf7234	0.101292044
60	0x3eef1807	0.4669802
61	0x3e6341fe	0.22193143
62	0x3e9607ca	0.29302818
63	0x3def2712	0.11677374
64	0x3eb6636b	0.35622725
65	0x3efa051f	0.48832032
66	0x3dadd5ae	0.08488022
67	0x3eea6102	0.45777136
68	0xbce2f0f2	-0.027702782
69	0xbdfdca9a	-0.12392159
70	0x3e944f00	0.28966522
71	0x3eb9aad4	0.36263144
72	0x3ea6511e	0.32483763
73	0x3e88289e	0.26593488
74	0xbdb1b0a8	-0.08676273
75	0x3e25e058	0.16198862
76	0xbea38a73	-0.31941566
77	0x3d2f81b8	0.04284832
78	0x3d8c952f	0.06864392
79	0xbd4c7fc3	-0.04992653
80	0x3ec272c3	0.3797818
81	0xbdbeb852	-0.093125
82	0x3eceabe7	0.40365526
83	0xbc93c920	-0.01804024
84	0x3eb234ae	0.34805816
85	0x3f03fc42	0.5155679
86	0xbd797930	-0.06090659
87	0x3cd65bbf	0.026166795
88	0xbd776af2	-0.060404725
89	0xbd7154b7	-0.05891868
90	0xbd92e0f1	-0.071718104
91	0xbdc35bb0	-0.095389724
92	0x3ebe20ad	0.37134305
93	0x3d9e6819	0.07734699
94	0x3ec25f39	0.37963274
95	0xbd4d7ae5	-0.05016603
96	0x3e8f1c66	0.27951354
97	0xbd3c1f28	-0.04592815
98	0xbdafd024	-0.085846215
99	0x3eaff06e	0.3436312
100	0x3c3311ee	0.010929568
101	0x3e906da1	0.2820864
102	0x3ed6120d	0.41810647
103	0x3e677d23	0.2260633
104	0x3d09fdc0	0.03368926
105	0x3d043b47	0.032283094
106	0x3ea79f66	0.327388
107	0x3d3f6b24	0.046733037
108	0x3e7efe50	0.249017
109	0xbda0db52	-0.07854332
110	0xbc0a231e	-0.008431224
111	0x3e8b4ce7	0.2720711
112	0x3defd364	0.117102414
113	0x3eba0425	0.36331287
114	0x3ea5baa7	0.32368967
115	0x3ee35adc	0.44405258
116	0x3e2c0e32	0.1680229
117	0xbd8dcfff	-0.06924438
118	0x3db678b8	0.08909744
119	0x3eb4cee0	0.35314083
120	0x3e8d0baa	0.2754796
121	0x3e7656f0	0.24056602
122	0x3d0d9789	0.034568343
123	0xbdeb4c0c	-0.11489114
124	0x3ed6508c	0.41858327
125	0x3ed33dc1	0.41258052
126	0x3eb54e3c	0.3541125
127	0x3ef564f0	0.47928572

fc3.bias f4 [2]
0	0x3ee3f135	0.44519964
1	0x3e8c1259	0.27357748
